Matrix-Factorization-Experiments/models/fm.pth (torch_old, 543096 bytes, 2 tensors)

feat.weight f4 [12330, 10]
00000000: bd4d 6f80 7de1 bd00 4643 b181 834e 9980
00000010: 3c37 5900 d00f 9880 7bd2 2400 f01f 1681
00000020: 74fb 5c00 a229 8e01 727f 81be 05eb d23e
00000030: ce90 5a3e cb8a c83e 53bf f3be a0fb 2b3d
00000040: c974 2ebf 0985 e8bd 874d eb3e 4c84 0b3e
00000050: 6a81 6ebe 980a db3e 2b96 1c3f fbc9 b53e
00000060: 5697 b8be a986 d7be e723 fabd dc39 19bf
00000070: 9113 1a3d c997 ddbd 4f7c 4b3e 08f6 083f
00000080: 69fa d43e c90a 003e a992 d13d 91c3 91be
00000090: a8e7 dcbe b4a7 93bd 35c4 72be e63b 64bf
000000a0: 2b4e d73c 6f8a 983e 6fb0 5ebd 52be 073e
000000b0: e5ee 833e 285a b33e 6fb0 c9be 48b3 dd3c
000000c0: 0da4 e5bd 29df 323d fdba 0d3f eb66 24bf
000000d0: 3fe7 34bf d547 18bf dde3 0a3f 9036 773e
000000e0: e50f 393e 5b5b 823d 3c4c c0be 4e62 213f
000000f0: e32f 683e 2d41 543e 96b8 1d3f f355 2b3f
00000100: 3ecb cebe bfa8 12bf d524 4bbe 3efa 603b
00000110: cbe2 e9bc bfed 08bf a6d1 95be 4212 363f
00000120: 2d60 9ebe fa19 c13e 83ac 63bf 4746 23bc
00000130: 770d e5bd a3ba f53e 6822 12bf 0dca 09be
00000140: d9a2 edbe 016a dfbd 84d2 69bd b1d3 2abe
00000150: ddff c23b b18e 303e 3369 2bbe c0ab 2e3f
00000160: 6bfe 8f3e 1e54 983e 76b9 0cbf 9769 1a3e
00000170: 864a 26be 01e9 91be a848 2bbe ea5d bd3c
00000180: 5476 7a3c c563 43be 70db 5f3f 8242 23be
00000190: ba78 1f3f d683 0ebf 0c72 f83e 94c7 2b3d
000001a0: a345 49bc 68ca 41bf 4a99 4dbe 971e 23bd
000001b0: 172b 0b3e bcb3 75be b0d3 c3be 4c24 a43e
000001c0: e894 b2be b53d 85bf 3bb4 3e3f 7864 013e
000001d0: 4888 b8be be6f bb3c 75ff a93e 7f56 c4be
000001e0: d70c 71be 9ee6 3abf 3011 2e3d 9515 d43e
000001f0: 404e 373f 18d3 943d def5 de3e cc56 103f
00000200: 6558 1c3e 0810 1d3e 2308 9ebe a98a 10be
00000210: 9ba4 393e 6355 0c3f 7819 713d e7e3 acbc
00000220: f89e 913d aeb0 0b3f ba6b e13d 2b30 56be
00000230: e8d1 ebbe 6a95 e83e 6005 3bbf d657 3d3e
00000240: ef3a 82bf 2584 2cbd 342b e03e 1f01 67be
00000250: 4811 cbbe 6726 cebf 197c b4be 858d 343e
00000260: 9931 a4bb 5379 8c3e 1d31 873e fed3 19bf
00000270: 72f1 cebe 7d99 a43c 69e8 b83d e3ad c2be
00000280: f611 0ebe febd 073f 01c6 963f 8ffe 693e
00000290: e8f4 56be c8dc 073e 4e8e 0b3e 6fab 843c
000002a0: dde8 193f b93e cdbc 7f28 023e 1a73 7f3d
000002b0: 0226 1e3e ec86 0fbf e9c6 fa3d 4231 f93d
000002c0: d9f3 313e f2d4 113e f150 db3b 7775 8c3d
000002d0: d5ec c23d 3ee7 bb3e 9e3a 393e bc21 dabe
000002e0: 6e6f ae3d 09f9 cd3e 98aa ea3e ba8c 16bf
000002f0: 6b7c 473f e542 2abf 5c8a 3ebe 2b7e 9c3c
00000300: 3194 9e3e 1501 48bf e53f 82bc b408 b4be
00000310: bc6e ca3c 63a6 99bc 75d1 9c3d 9a67 503e
00000320: 3e13 263e 454d 91be 128f 9bbe c51c 113f
00000330: 8fc3 583e 55ef e0bd ebf7 de3e 2392 d7be
00000340: 1ce3 133d 5266 1f3d 2406 943e 3b3d 8fbe
00000350: 6eb7 2bbf ca40 5ebf 27d8 65bf 1c2b 2cbe
00000360: 3933 063f c5da 533e a74a 0cbf cf50 cb3f
00000370: 477f 073f 8114 fd3e e532 27bf a132 dfbe
00000380: 4e41 e3bd cf77 b43d 6d24 bd3d 75ca 4e3e
00000390: 92b6 8e3e f304 07be d901 d6be ca3d cebe
000003a0: 0ccd 7abe a696 dbbe c8a1 5dbe 4dab eebe
000003b0: a1f6 f33d 70ae ba3e 555a 34be bf6c b93e
000003c0: bbd1 073d 8475 e1bd f17c 71bd 6d2e 353d
000003d0: fc2f 583e 5c32 d33e a460 203e 1e72 063d
000003e0: f9e3 043f 1da8 e93e 273c 09bf e9b7 a53e
000003f0: e0c5 f5bc 108c b1bf da3c 12bf 9b68 1dbf
-1.0221627e-38 1.7437799e-38 -6.5116064e-38 -1.4078996e-38 8.193174e-39 -1.3964668e-38 3.381584e-39 -2.7573563e-38
8.53907e-39 5.22223e-38 -0.25292546 0.4119493 0.21344301 0.3916839 -0.47606906 0.041988015
-0.6814695 -0.113534994 0.45957586 0.13624686 -0.23291555 0.4278152 0.6116664 0.3550566
-0.3605296 -0.42094925 -0.12213879 -0.5985391 0.037616316 -0.10819966 0.19871639 0.53500414
0.41597298 0.12504114 0.10233051 -0.28469518 -0.4314549 -0.07209721 -0.2370766 -0.891539
0.02628239 0.29793116 -0.05436748 0.13256195 0.257682 0.3502972 -0.3939242 0.027063027
-0.11212931 0.043669853 0.55363446 -0.6421954 -0.70665354 -0.59484607 0.5425394 0.24141908
0.1807247 0.06365081 -0.37558162 0.63040626 0.22674517 0.20727988 0.6160978 0.66928023
-0.40389436 -0.57288736 -0.19838269 0.0034328843 -0.028550526 -0.5348777 -0.29261512 0.7112161
-0.3093275 0.3771513 -0.88935107 -0.009965486 -0.11184209 0.47993955 -0.5708375 -0.13455983
-0.46413305 -0.109088905 -0.05708553 -0.16682316 0.0059509114 0.17241932 -0.16739349 0.6823082
0.28123793 0.29751676 -0.5497049 0.15079342 -0.16239366 -0.2849808 -0.16726935 0.02311607
0.015287001 -0.19081028 0.8744421 -0.1594334 0.6229359 -0.55669916 0.4852451 0.04193838
-0.012284669 -0.7569947 -0.20078006 -0.039824095 0.13590656 -0.23994344 -0.38247442 0.32058942
-0.3487923 -1.0409456 0.7449376 0.12635982 -0.36041474 0.022880431 0.3320271 -0.3834724
-0.23540054 -0.73008144 0.04249686 0.41422716 0.71603775 0.072668254 0.43546957 0.5638244
0.15268095 0.15338147 -0.30865583 -0.14115395 0.18129198 0.5481779 0.05886218 -0.021104766
0.07110399 0.54566467 0.11006875 -0.20916812 -0.46058583 0.45426494 -0.73055077 0.18490538
-1.0174235 -0.04211821 0.4378296 -0.22559021 -0.39661622 -1.610547 -0.3525093 0.1763211
-0.0050107953 0.27436313 0.26404658 -0.600891 -0.40418583 0.02009272 0.09028704 -0.3802329
-0.13874039 0.5302428 1.1779176 0.22851013 -0.20991862 0.13267815 0.13628504 0.016195027
0.60120946 -0.025054323 0.1271076 0.06236563 0.15444186 -0.5606525 0.1224497 0.12167598
0.17378177 0.14241388 0.0066929986 0.06858342 0.095178284 0.3669986 0.18088767 -0.42603862
0.08517347 0.4022906 0.45833278 -0.5880848 0.7792422 -0.6650832 -0.18607467 0.01910313
0.30972436 -0.7812665 -0.015899608 -0.3516289 0.024711005 -0.018756097 0.07657138 0.20352021
0.16218278 -0.28379264 -0.3038259 0.56684524 0.2116835 -0.10983149 0.4354852 -0.4210368
0.03610526 0.03891594 0.28910935 -0.27976403 -0.67076766 -0.8681761 -0.8978295 -0.1681332
0.5242191 0.20688923 -0.5480141 1.5884036 0.52928585 0.49429706 -0.65312034 -0.43593314
-0.1109644 0.08811914 0.09235463 0.20194419 0.27873665 -0.13185482 -0.41798285 -0.40281516
-0.24492282 -0.42888373 -0.21643746 -0.46615067 0.11912275 0.3646121 -0.17612584 0.3621578
0.033159 -0.110087425 -0.058957044 0.04423373 0.21112055 0.4124936 0.15661865 0.032823674
0.5191036 0.45636073 -0.5360741 0.32366875 -0.03000158 -1.3870869 -0.571241 -0.6148774

bias_feat.weight f4 [12330, 1]
00000000: 6827 4a3e 63ee 083f 0e3a a43e a44c 203f
00000010: 9291 7e3f 3579 a5be 59a8 e33e 38f9 493f
00000020: e94c 4c3f 86f7 3a3e 8a39 563f c0b7 9fbe
00000030: 33c5 1b3e 3ca1 263e 6889 363d 089f 943d
00000040: 3dc6 f33e 37fa 653f e02f 213f beb6 983e
00000050: 77cd 7a3f 2c73 c4be 7ec8 223c a0f2 f73b
00000060: 4dbe 013f d057 ed3e 33c8 68bc 3283 7f3c
00000070: 65ce 323e 7165 e33d 9e8a 99be 0692 723e
00000080: 92fc 07be 0201 323e 68df 3f3f 6baf 86bd
00000090: 7547 793f 6142 543e acc5 f03e e69e 2b3f
000000a0: 0ec0 f63e 12af 803e bbd5 083f 5abb 8b3f
000000b0: 5917 c53e c105 89be f775 3dbe a7e3 013e
000000c0: 74d9 f33d 210a 1f3f fc75 4fbe aac5 953e
000000d0: eba8 813e ec1a ae3f bad0 b83e c01f 3f3f
000000e0: d1e8 fe3e 21d0 4cbd 95c4 6d3f b92b 70be
000000f0: f2a0 5a3e acda c13d 0142 a73e 0429 153f
00000100: d8d0 053f 7ef5 703f 292b ad3e 9b0e 7d3f
00000110: b87a 793e 47c3 343f 5631 db3e 4adb e43e
00000120: ed5f 333e 1f68 c93e 0eb8 c53e b3d6 533f
00000130: 38ca 3a3f cbc4 f33c 88d5 b53d 4a27 243f
00000140: 1379 cf3e c13f 5b3e c157 493f 1642 223f
00000150: 663a 68ba 025b 2b3e 863a 663f 2a4a 49bf
00000160: 5724 ae3e 9ee1 883c 6b4a b13e 2223 a03f
00000170: d815 f5be da66 b33e ac62 a13f 12cc 353e
00000180: 50af 74be 5894 2f3f a73b a63e daf6 3dbe
00000190: a2cf 063e 5fa9 bd3f 692b f0bd b801 703f
000001a0: 7103 a93e c084 703f 7364 dc3e 6937 903e
000001b0: 5d59 40be ee13 443f 75a3 c73e 3b89 3b3d
000001c0: 360c 1b3f 12cd e23c 62f6 e13e e951 723f
000001d0: 9f16 3c3f 78f2 973e c2a9 933e 21c0 4e3e
000001e0: e078 2d3c 48e2 9a3f 84ed dc3e 085c 673e
000001f0: 3628 4c3f 4ef7 0e3f d19f e93e 91d0 203f
00000200: eec1 943f cf1c 433f cfdb 0b3f 1030 2bbe
00000210: 72cb 513f 46bf bb3e 137d 073e 903e 483f
00000220: d282 d3be 8aea 1c3f a34e 573f cb68 323f
00000230: 571a 903d 35ca 79be 8794 33be d1c2 11be
00000240: 6a6d 6a3e 334c 94be b9b2 af3e 4ce2 b33e
00000250: 4094 023f dbd1 3d3f 632c 313f 1125 283f
00000260: 443e 1a3f 148a 8f3f c920 823d 0c03 32bd
00000270: f99a 4c3f 5a9f 113f ee43 9a3f 0b96 e63e
00000280: 4030 683e bf95 3e3f e379 5f3f e8c8 07bf
00000290: f6d7 8b3f ef49 9d3e 3431 ed3e e952 bb3e
000002a0: b3e3 603f 0fbf af3e baf6 0f3f 8b1a 053f
000002b0: d189 8b3e cb23 b03e d613 c13e e77d f33e
000002c0: 9fcc f23e 9b19 113f 75c6 be3e 9fcc 3abe
000002d0: 14e1 303e a7bd 083f 334e 113e b2d9 db3e
000002e0: 8eea fc3e 0c04 033f c79d 593f d29a 443f
000002f0: a826 763e 1b3f b83e d24c 743e 9c30 593e
00000300: 3844 863e dd80 a33e 9dcb 5a3f 84e9 573f
00000310: e498 a63e eb1d c9bc 2bb9 0e3f 8718 bd3e
00000320: 458b c03e c116 633f 4bba 003f 9ce5 80bf
00000330: aab8 a43e eead 1d3e 8789 dcbe a32f 243f
00000340: 90f1 b63e 1863 803d dfa8 9d3f 62d5 513f
00000350: d088 de3e db32 223f 2570 b83e ae4b ca3f
00000360: 1b6e a03e dfca 883e 8a43 203e 2e98 993e
00000370: b275 803f 461f de3e c540 773f 745c 783e
00000380: 929f afbe 7b63 ea3d 6afb 513e a45c 5e3e
00000390: 3aad 823f 67f2 743e 3b40 6a3f 06ad 643f
000003a0: 73ec 2d3e 7869 7e3f 9374 6f3f 665e 133f
000003b0: 2053 1d3e 997b 333e 52b4 943e efd2 163f
000003c0: 1cc4 823d b6b9 c83e 571c 18bd 6755 783e
000003d0: 09c5 213f f843 75be 7c7b 603f bf9e 013f
000003e0: 884d 8d3f ea27 183f c798 063f 88f3 753e
000003f0: ad2a 7e3f 626b ae3e 7215 213f b6f6 583f
0.19741595 0.5348875 0.32075542 0.62616944 0.9944087 -0.32319036 0.44464377 0.788959
0.79804856 0.18258485 0.8368155 -0.31194878 0.15211944 0.16272444 0.044564635 0.07256895
0.4761218 0.8983492 0.62963676 0.2982692 0.97969764 -0.3836912 0.009935496 0.007566765
0.50681 0.46356058 -0.014207887 0.015595244 0.17461546 0.11103333 -0.2998857 0.23688516
-0.13279942 0.17383197 0.74950266 -0.06576427 0.9737466 0.20728447 0.47025812 0.67039335
0.481934 0.25133568 0.53451127 1.091655 0.38494375 -0.26762202 -0.18502031 0.12684499
0.1190671 0.6212483 -0.20259851 0.29252368 0.25324187 1.3601966 0.36096746 0.7465782
0.49787 -0.050003175 0.92878085 -0.23454179 0.21350458 0.094655365 0.32667544 0.5826571
0.52271795 0.9412459 0.3382199 0.9885041 0.2436322 0.7061047 0.42811078 0.44698554
0.17517062 0.3933725 0.38616985 0.8274948 0.7296481 0.029756924 0.088786185 0.6412245
0.4052206 0.21411039 0.78649527 0.6338209 -0.00088587997 0.16733935 0.8993305 -0.7862879
0.340121 0.016709145 0.3462709 1.2510722 -0.47868228 0.35039407 1.2608237 0.17753628
-0.23895001 0.6858573 0.32467386 -0.18551198 0.13165143 1.4817313 -0.1172703 0.9375262
0.33010438 0.9395256 0.43045387 0.28167275 -0.1878409 0.7659291 0.38991895 0.04578517
0.6056551 0.027685676 0.44133288 0.94656235 0.7347202 0.29677176 0.28840452 0.20190479
0.010587901 1.2100306 0.4314996 0.22593701 0.7974886 0.55846107 0.45629743 0.6281825
1.1621683 0.76215833 0.54632276 -0.16717553 0.8195106 0.36669368 0.13231306 0.7822046
-0.41310745 0.6129538 0.84104365 0.6969115 0.07036274 -0.24393542 -0.17537127 -0.14234473
0.228933 -0.28964385 0.34316042 0.35133588 0.5100746 0.7414834 0.69208354 0.6568156
0.6025126 1.1214013 0.063539095 -0.043459937 0.7992397 0.56883776 1.205198 0.4503635
0.22674656 0.74447244 0.8729536 -0.53040934 1.0925281 0.3072047 0.46326602 0.36586693
0.8784744 0.34325454 0.5623585 0.51993626 0.27253583 0.34402308 0.37710446 0.47556993
0.47421739 0.56679696 0.37260786 -0.18242119 0.1727336 0.53414387 0.14189987 0.42939526
0.493977 0.5117805 0.85006374 0.7679874 0.24038184 0.35985646 0.2385743 0.2120995
0.26223922 0.31934252 0.8546694 0.8434069 0.3253852 -0.024550399 0.55751294 0.36932775
0.37606254 0.88706595 0.5028426 -1.0070071 0.32172137 0.1539838 -0.43073675 0.6413519
0.35731173 0.06268901 1.231716 0.8196622 0.43463755 0.6335885 0.3602306 1.5804346
0.31334004 0.26717278 0.15650764 0.29998916 1.0035918 0.43383235 0.96583205 0.24254018
-0.3430143 0.11444756 0.20506063 0.21715027 1.0209115 0.23920594 0.9150426 0.8932651
0.1698473 0.9937968 0.93537253 0.57565916 0.15363741 0.17527618 0.29043823 0.5891561
0.06385061 0.39204186 -0.037136402 0.24251328 0.63191277 -0.2395171 0.8768842 0.5063285
1.1039286 0.59435904 0.5257687 0.24018681 0.9928387 0.34066302 0.6292335 0.8475145
