Matrix-Factorization-Experiments/models/mf_biases.pth (torch_old, 440673 bytes, 4 tensors)

user.weight f4 [6041, 10]
-2.7018368e-38 1.5642029e-38 -1.5187347e-38 -5.258986e-39 1.036512e-39 -1.1667043e-38 8.4751036e-38 3.2989396e-38
2.2943639e-38 -3.7075246e-38 0.0675255 0.31796136 0.7075214 0.038463753 -0.93167186 0.26518673
0.5381799 -0.015345109 0.25544986 0.14886822 -0.63032126 0.29863185 0.276705 -0.03976299
-0.8639728 -0.06593386 0.015325533 0.3350072 0.15464184 -0.32776147 -0.7446479 -0.4103416
-0.21692058 -0.47665256 -0.31093955 -0.3892247 0.24767855 -0.41311333 0.20118849 -0.7810701
-0.037731856 -0.16262892 -0.042918902 -0.526935 0.22661248 0.18062025 0.40955466 0.103826806
0.09570035 -0.059248075 0.28744534 0.29966307 -0.21623638 0.3531709 0.81722736 0.1709297
0.11475634 0.0024650423 -0.9631286 0.5161728 -0.6470775 -0.16111054 -0.17570242 -0.14676258
-0.7341315 -0.19045198 -0.19217578 0.1879682 -0.17104496 -0.38325703 -0.12578426 0.24553393
-0.8588607 -0.36474413 0.028641047 0.45459503 0.24193378 0.61689806 0.8080133 -0.124405846
0.39508617 0.07325549 0.02055992 0.02730126 -0.052152608 -0.08057162 0.13683094 0.05810639
0.22186214 0.4068114 -0.16136661 0.4041839 0.5451932 0.2592876 -0.027221575 -0.8078303
0.24828628 0.55492 0.09565574 -0.25444955 -0.4040038 -0.042165924 -0.27205944 0.37299243
-0.5546195 -0.079684086 -0.3555213 0.09941268 -0.9149202 -0.13269882 0.17274122 -0.090722784
0.41299498 -0.82095265 0.8242889 -0.8873301 0.6319622 0.3311651 -0.56201446 -0.2635024
0.5931527 -0.24699715 0.23421831 0.35922164 -0.22412185 0.05821632 -0.3073699 -0.5860622
0.45116913 0.05625998 -0.121991545 -0.06617685 -0.07129985 0.3643686 -0.19656229 0.07152403
-0.3822517 -0.018880777 0.8059389 0.4594742 -0.5466248 -1.1491991 -0.652754 -0.37399438
0.5541564 -0.3116518 0.18157998 1.0512935 0.95116466 -0.5151663 0.08396282 -0.25606847
0.15105234 -0.34871092 -0.81390166 -0.58456707 0.018720126 -0.018895406 -0.048458636 0.18345737
0.2653002 -0.05329802 0.57811546 -0.010496313 -0.37072286 0.8596651 -0.013219734 0.6709838
0.027809696 -0.9119202 0.14345902 0.10871867 -0.19683358 0.2976878 0.22663483 -0.123504914
-0.042079307 -0.083568685 -0.34125623 -0.16382124 -0.2878752 -0.08310285 0.19068518 0.6671787
0.53541034 -0.70444524 0.47429794 -0.44364622 0.19766715 -0.7649214 0.013189396 0.8356935
-0.25546658 -0.18161611 0.13721675 -0.30191958 -0.24840423 0.1744198 -0.038518064 -0.32537237
0.7571934 -0.08082431 -0.21347018 -0.34429416 0.030716013 -0.2634801 0.12160496 -0.1371055
0.23365071 -0.1987291 0.8474895 1.5414454 -1.0445879 0.41498452 0.5874726 0.3392025
-0.0010840325 0.45103008 -0.7147581 0.05953949 -0.27972436 0.7699365 -0.54532045 -0.0111456495
0.5596103 -0.45136032 0.56633353 0.026317688 -0.03214088 0.08295297 0.21919593 0.31031552
-0.49868765 0.19825202 0.071480006 -0.12100538 -0.3801837 -0.10441449 0.10052579 0.39303458
0.00499779 0.31661716 0.58055454 0.25486696 0.18424718 0.22816366 0.38676146 0.010235568
-0.1552049 -0.284955 -0.23182215 0.36658627 -0.72965103 -0.0050537423 0.12703428 -1.1458197
00000000: 1c1a 1381 9d53 aa00 2560 a580 ea43 3980
00000010: 6049 0b00 f80a 7f80 dab6 e601 829c 3301
00000020: 88d5 f900 5adb 4981 cf4a 8a3d d5cb a23e
00000030: 1f20 353f 2b8c 1d3d 0c82 6ebf 8ec6 873e
00000040: 28c6 093f 0d6a 7bbc 53ca 823e e970 183e
00000050: bc5c 21bf 46e6 983e 47ac 8d3e 84de 22bd
00000060: 522d 5dbf 5508 87bd f217 7b3c 1086 ab3e
00000070: 6e5a 1e3e 5ad0 a7be 3fa1 3ebf 4b18 d2be
00000080: 6e20 5ebe ce0b f4be 7833 9fbe 7648 c7be
00000090: 729f 7d3e 9783 d3be 5b04 4e3e 36f4 47bf
000000a0: b88c 1abd 3288 26be bbcb 2fbd 36e5 06bf
000000b0: 1a0d 683e 84f4 383e 26b1 d13e 26a3 d43d
000000c0: 8cfe c33d 1cae 72bd 092c 933e 706d 993e
000000d0: 126d 5dbe d1d2 b43e d035 513f 3208 2f3e
000000e0: 5f05 eb3d 8c8c 213b 998f 76bf e723 043f
000000f0: dfa6 25bf 29fa 24be 56eb 33be ee48 16be
00000100: 0bf0 3bbf d805 43be bac9 44be bc7a 403e
00000110: 6926 2fbe 443a c4be 97cd 00be 3f6d 7b3e
00000120: 4bde 5bbf bebf babe a1a0 ea3c aec0 e83e
00000130: 7dbd 773e 08ed 1d3f f6d9 4e3f 7ec8 febd
00000140: bc48 ca3e f906 963d 476d a83c e4a6 df3c
00000150: f99d 55bd bc02 a5bd 691d 0c3e f700 6e3d
00000160: d42f 633e 9549 d03e 4a3d 25be 31f1 ce3e
00000170: c891 0b3f 58c1 843e c8ff debc f7cd 4ebf
00000180: c23e 7e3e 3d0f 0e3f 28e7 c33d 3647 82be
00000190: 96d9 cebe 2db6 2cbd 604b 8bbe ddf8 be3e
000001a0: 8bfb 0dbf 6931 a3bd e306 b6be e098 cb3d
000001b0: 3638 6abf 33e2 07be 13e3 303e decc b9bd
000001c0: 1474 d33e f429 52bf 9904 533f 1128 63bf
000001d0: 46c8 213f 798e a93e 2ee0 0fbf c9e9 86be
000001e0: dbd8 173f d2ec 7cbe edd6 6f3e e6eb b73e
000001f0: 3380 65be 3c74 6e3d 965f 9dbe 2c08 16bf
00000200: a4ff e63e dd70 663d b4d6 f9bd ba87 87bd
00000210: a805 92bd 858e ba3e a047 49be 317b 923d
00000220: 7fb6 c3be dcab 9abc 0352 4e3f 3440 eb3e
00000230: 9aef 0bbf f518 93bf e31a 27bf 317c bfbe
00000240: 32dd 0d3f d390 9fbe 1af0 393e c990 863f
00000250: 877f 733f f0e1 03bf b3f4 ab3d 681b 83be
00000260: 77ad 1a3e 3d8a b2be dc5b 50bf 30a6 15bf
00000270: f35a 993c 8aca 9abc 907c 46bd 40dc 3b3e
00000280: 6ed5 873e 064f 5abd 60ff 133f baf8 2bbc
00000290: 63cf bdbe 0313 5c3f 9597 58bc 98c5 2b3f
000002a0: 29d1 e33c 9a73 69bf ece6 123e e5a7 de3d
000002b0: be8e 49be 896a 983e f612 683e 25f0 fcbd
000002c0: 5a5b 2cbd 0f26 abbd 23b9 aebe c1c0 27be
000002d0: 6164 93be d431 aabd fa42 433e 39cc 2a3f
000002e0: a710 093f 8656 34bf 2ed7 f23e 9925 e3be
000002f0: 4269 4a3e e4d1 43bf 5618 583c 02f0 553f
00000300: 84cc 82be 93f9 39be 8c82 0c3e 3495 9abe
00000310: ae5d 7ebe 1b9b 323e 1ec5 1dbd 3597 a6be
00000320: 6dd7 413f 3787 a5bd ed97 5abe 5347 b0be
00000330: 26a0 fb3c dde6 86be 050c f93d 6265 0cbe
00000340: 2242 6f3e a47f 4bbe 12f5 583f 154e c53f
00000350: 0eb5 85bf da78 d43e 9b64 163f f3ab ad3e
00000360: 1816 8eba 6aed e63e 63fa 36bf aedf 733d
00000370: 0838 8fbe 8f1a 453f 1f9a 0bbf 3e9c 36bc
00000380: 9f42 0f3f b318 e7be 3cfb 103f 3198 d73c
00000390: 28a6 03bd 3fe3 a93d e674 603e ade1 9e3e
000003a0: fd53 ffbe 9402 4b3e 1c64 923d abd1 f7bd
000003b0: 70a7 c2be 44d7 d5bd 77e0 cd3d d43b c93e
000003c0: 80c4 a33b a51b a23e 399f 143f ec7d 823e
000003d0: 4bab 3c3e bca3 693e 9905 c63e 15b3 273c
000003e0: 09ee 1ebe 9fe5 91be c962 6dbe 32b1 bb3e
000003f0: 69ca 3abf dd99 a5bb 4615 023e 38aa 92bf

item.weight f4 [3953, 10]
-2.9140229e-38 -1.503209e-38 -2.0664629e-38 1.1118439e-38 4.956848e-39 6.680604e-39 1.5919255e-38 -3.4901833e-38
-1.7327135e-38 -2.2450623e-38 0.42663 -0.09133973 0.46961 0.6051265 -0.18517353 0.048820425
-0.27042234 0.03404674 -0.0020158575 -0.45847353 -0.2606785 0.051641732 -0.108570114 0.44359648
-0.44849595 -0.190787 -0.4478693 -0.14394665 -0.4285299 -0.3473432 -0.02843257 0.14426863
-0.27313682 -0.11733231 -1.031878 -0.31260547 0.6203697 0.18009493 -0.27957633 -0.2166191
-0.9535209 0.09009362 0.44669113 -0.20595711 -0.5110316 0.3904548 -0.3373642 -0.2970263
-0.6174548 -0.09590442 -0.3739173 0.08169753 0.28273186 -0.070907325 -1.0629791 -0.19932188
0.0024526687 0.011006063 -0.12034847 0.019767769 0.18655637 -0.3278286 0.054446496 -0.4192071
-0.035600178 -0.054268517 0.2073206 0.22225504 0.32339078 0.07738579 -0.060437843 -0.18684596
0.17249967 -0.0036493065 -0.8540053 -0.15744989 0.086030036 0.100129694 -0.41079128 -0.43858606
-0.060138825 -0.16992737 -0.33081746 0.21498357 -0.97755295 0.2581783 0.37983802 -0.38432893
0.09189283 0.54529697 0.25053188 0.2214563 -0.5392706 -0.9593345 -0.5177237 0.34961322
-0.49502775 -0.1873012 -0.18012169 0.27523366 0.37466627 -0.1700265 -0.47962415 0.15826297
-0.16527165 -0.3941449 -0.5244542 0.20333266 0.07490523 -0.29815945 0.1255923 0.017634833
0.13502304 -0.05767924 -0.44304466 0.11032075 -0.25115597 -0.15489365 -0.1742022 -0.6369223
-0.2972408 0.26743945 -0.9425385 -0.21387294 -0.68310314 0.6603865 -0.50390416 0.83433545
-0.4385621 -0.35636616 -0.71262383 -0.16246067 0.06691668 0.20022155 -0.8390119 -0.1904288
0.3941578 -0.68832666 0.008863676 -0.18831497 -0.6625126 -0.2500901 0.48170578 -0.32335153
0.5025168 0.36438984 -0.4357425 0.5400833 0.3762134 -0.066530615 -0.22390984 -0.5015881
-0.7645069 -0.037036296 -1.0599254 -0.3834115 0.12537947 -0.10910503 -0.7304057 -0.056667075
0.14122216 -0.1153184 -0.09302952 -0.39603034 0.046665385 -0.507479 0.3820863 0.17196931
0.431836 0.46222025 -0.14156322 -0.3917602 0.49347103 0.61749554 -0.13379452 0.334609
0.2474408 -0.24811064 -0.3574224 -0.31469843 0.08880081 0.012613286 -0.79631674 -0.501945
0.19954488 -0.7866376 -0.0771737 0.3367416 -0.22102131 -0.2669891 0.89329296 0.85073024
0.08638658 -0.16727678 -0.6115251 -0.449169 0.13966334 0.9710831 -0.16101936 -0.12446969
0.28599864 -0.37373474 -0.26420888 -0.87717927 -0.7679598 -0.16435549 -0.17358871 -0.30601358
0.02507159 0.10621803 0.3738373 -0.4072406 -0.02453076 -0.12222823 0.45614967 0.1688987
-0.24674013 0.13533776 -0.20905492 -0.16025962 0.024526266 0.2856258 0.15063195 -0.41142392
-0.39809725 -0.20290507 -0.49158874 -0.25195774 0.16839544 0.10898841 -0.14421989 0.030622737
-0.6010906 -0.47659528 -0.66830176 -0.22626945 -0.34701785 0.03845037 0.28656095 0.51530355
-0.35612792 -0.3879044 0.08513031 -0.20228545 -0.6723175 -0.211385 0.0096138 -0.11205824
-0.6389898 0.13098505 -0.1283094 -0.1621543 0.60350364 -0.21414666 0.6152432 -0.27083173
00000000: 8da7 1e81 5aaf a380 9404 e180 af11 7900
00000010: adf9 3500 cebe 4800 6858 ad00 0e06 3e81
00000020: 01ad bc80 3477 f480 3f6f da3e 5310 bbbd
00000030: b970 f03e 92e9 1a3f 219e 3dbe edf7 473d
00000040: cc74 8abe 9874 0b3d 7a1c 04bb 0bbd eabe
00000050: a777 85be 4886 533d 025a debd 141f e33e
00000060: 43a1 e5be ab5d 43be 204f e5be c066 13be
00000070: 4568 dbbe f8d6 b1be 6ceb e8bc 28bb 133e
00000080: 97d8 8bbe ec4b f0bd 9414 84bf d30d a0be
00000090: 8cd0 1e3f ce6a 383e a124 8fbe 66d1 5dbe
000000a0: f219 74bf 0183 b83d b3b4 e43e 6ce6 52be
000000b0: f8d2 02bf b1e9 c73e 00bb acbe d513 98be
000000c0: 8511 1ebf 8969 c4bd 1772 bfbe 0951 a73d
000000d0: 3bc2 903e dc37 91bd b30f 88bf 091b 4cbe
000000e0: f4bc 203b c652 343c 4279 f6bd 04f0 a13c
000000f0: a208 3f3e 26d9 a7be 4a03 5f3d 50a2 d6be
00000100: 7ed1 11bd aa48 5ebd da4b 543e d396 633e
00000110: 7a93 a53e 717c 9e3d ac8d 77bd 8c54 3fbe
00000120: c1a3 303e 3429 6fbb 17a0 5abf 8b3a 21be
00000130: 8430 b03d cc10 cd3d 3c53 d2be 5a8e e0be
00000140: 2154 76bd 7101 2ebe e860 a9be a724 5c3e
00000150: e940 7abf f22f 843e 217a c23e c3c6 c4be
00000160: 4f32 bc3d 9598 0b3f b745 803e 71c5 623e
00000170: a30d 0abf f296 75bf 8a89 04bf 8100 b33e
00000180: 4774 fdbe e3cb 3fbe d271 38be 6deb 8c3e
00000190: 42d4 bf3e 6d1b 2ebe 4c91 f5be b00f 223e
000001a0: f93c 29be 5ccd c9be a142 06bf 7036 503e
000001b0: ea67 993d 5ba8 98be 459b 003e ed76 903c
000001c0: 7b43 0a3e 1141 6cbd c0d6 e2be d8ef e13d
000001d0: 8497 80be 719c 1ebe 1062 32be 570d 23bf
000001e0: f22f 98be d3ed 883e 344a 71bf 8201 5bbe
000001f0: d9df 2ebf 170f 293f ddff 00bf 0297 553f
00000200: 368b e0be a075 b6be 846e 36bf 175c 26be
00000210: 9d0b 893d e106 4d3e 7cc9 56bf c4ff 42be
00000220: 0dcf c93e 2d36 30bf f438 113c a4d5 40be
00000230: 6d9a 29bf cf0b 80be 24a2 f63e 558e a5be
00000240: f1a4 003f 4e91 ba3e a419 dfbe e642 0a3f
00000250: 0b9f c03e 3441 88bd 9f48 65be 1468 00bf
00000260: b9b6 43bf 5fb3 17bd a3ab 87bf 834e c4be
00000270: 7a63 003e 7572 dfbd defb 3abf bc1b 68bd
00000280: 8b9c 103e 0e2c ecbd 4386 bebd 7dc4 cabe
00000290: 3424 3f3d 25ea 01bf d1a0 c33e b918 303e
000002a0: 9c19 dd3e 22a8 ec3e f3f5 10be cb94 c8be
000002b0: 3ca8 fc3e 3014 1e3f 6e01 09be df51 ab3e
000002c0: 1f61 7d3e b710 7ebe 1200 b7be 2720 a1be
000002d0: 33dd b53d f5a7 4e3c 6adb 4bbf 787f 00bf
000002e0: 7e55 4c3e 1561 49bf 3f0d 9ebd 6569 ac3e
000002f0: 6953 62be ccb2 88be d9ae 643f 75c9 593f
00000300: 72eb b03d 9b4a 2bbe e98c 1cbf 7bf9 e5be
00000310: e803 0f3e e798 783f 42e2 24be f7e9 febd
00000320: 6a6e 923e 295a bfbe 6346 87be d28e 60bf
00000330: 0399 44bf ce4c 28be 3dc1 31be d0ad 9cbe
00000340: ef62 cd3c d788 d93d 9a67 bf3e d781 d0be
00000350: bbf4 c8bc cb52 fabd 738c e93e c8f3 2c3e
00000360: 72a9 7cbe fb95 0a3e 7e12 56be 191b 24be
00000370: 4feb c83c 8b3d 923e 433f 1a3e 28a6 d2be
00000380: 67d3 cbbe 59c6 4fbe 85b1 fbbe 9b00 81be
00000390: db6f 2c3e 5135 df3d 61ae 13be 89dc fa3c
000003a0: 13e1 19bf 4c04 f4be d315 2bbf 2eb3 67be
000003b0: 53ac b1be 237e 1d3d 1eb8 923e efea 033f
000003c0: 6656 b6be 689b c6be cd58 ae3d eb23 4fbe
000003d0: 001d 2cbf 4f75 58be 3383 1d3c ca7e e5bd
000003e0: d694 23bf f220 063e 8a63 03be c70b 26be
000003f0: 377f 1a3f 4349 5bbe 9480 1d3f 75aa 8abe

bias_user.weight f4 [6041, 1]
-6.433249e-39 0.38530794 0.023173548 0.3118724 0.56805533 -0.63662684 0.027825385 0.23938705
0.64476144 -0.013682863 0.45708224 -0.62862796 -0.10923714 -0.22985178 -0.40518466 -0.22428665
0.06927884 0.4591988 0.25239915 0.13672206 0.5258101 -0.6793938 -0.18800615 -0.18146165
0.32534707 0.25930884 -0.3707132 -0.36467558 -0.012157968 -0.057747036 -0.52722067 -0.06940062
-0.4155749 -0.15988696 0.35183367 -0.3547607 0.6930713 -0.122191966 -0.044165716 0.35050735
0.1643522 -0.19326675 0.12992507 0.5212201 0.09980486 -0.5586137 -0.46940497 -0.32227832
-0.27961954 0.39578465 -0.2608111 0.36866865 0.033727 0.9756493 0.016590169 0.4431589
0.35580987 -0.068892956 0.587043 -0.6878839 0.15608123 -0.27092314 0.013584441 0.12237056
0.22364607 0.6210149 0.07098159 0.3637534 -0.050029933 0.2975314 0.2810604 0.24344236
0.025861803 0.13327445 0.12310681 0.7498951 0.5542613 -0.257883 -0.03782199 0.32123536
0.08881073 -0.33202848 0.33600426 0.35922176 -0.3095239 -0.0921364 0.6355721 -1.2206372
0.18580769 -0.30838487 0.19545203 0.8746124 -0.75420326 -0.083453335 0.40078837 -0.1254117
-0.5311277 0.33243567 -0.09688775 -0.27579877 -0.14566281 0.99625427 -0.57668084 0.6323002
0.2532738 0.6178106 0.008635226 -0.133079 -0.18730414 0.39032903 0.17879546 -0.14341132
-0.12348499 0.056250047 -0.010688694 0.5688558 0.3483444 -0.017162584 -0.19901967 -0.103555724
-0.05879386 1.0163068 0.3296936 0.016774703 0.5266305 0.30129278 0.23559155 0.28412127
0.8234316 0.33400032 0.16878492 -0.48054424 0.43933925 0.06774895 -0.23997656 0.46133232
-0.62804866 0.22644338 0.49058422 0.35427487 -0.3275817 -0.8008666 -0.6392109 -0.59914356
-0.28921652 -0.69315594 0.12225712 0.035311945 0.06368048 0.46916154 0.37090898 0.27285126
0.3610465 0.830805 -0.27010822 -0.20707628 0.60400486 0.23075059 0.72109884 -0.0058409004
0.047955886 0.44070372 0.61245555 -0.99123734 0.8528604 -0.13509598 0.1624651 -0.12829906
0.5821257 0.00924588 0.22164859 0.21297568 -0.33421156 0.049949415 0.12249916 0.22973214
-0.017752105 0.24670187 0.029936638 -0.47699785 0.17051172 0.14641371 -0.25158074 0.15687424
0.27454183 0.16674738 0.7775656 0.49502167 -0.1317907 0.0056906547 0.010421775 -0.07105608
-0.036740135 0.056707148 0.47166422 0.6634073 0.2013518 -0.23723195 0.13690333 0.17261073
0.22299145 0.7023628 0.24102637 -1.0328411 -0.07964519 0.005333025 -0.7536627 0.5140945
-0.23964326 -0.11287249 1.1508743 0.19469194 0.007970827 0.28642532 0.06434659 1.1285228
-0.10278157 -0.3146313 -0.019776516 -0.030611932 0.6808573 0.17040332 0.6011748 -0.10421456
-0.6215352 -0.21372776 -0.0132049145 -0.33038488 0.5910793 0.094947204 0.64569914 0.77631944
-0.1769163 0.7381761 0.64115214 0.20050818 0.0047283866 -0.15704936 0.09471067 0.2722594
-0.39097506 0.20434502 -0.20111851 0.095862396 0.57133555 -0.52397484 0.36227304 0.25740835
0.87538725 0.7349156 0.3591317 0.088059604 0.59781617 -0.14323485 -0.2216299 0.54395014
00000000: 480d 4680 1547 c53e 74d6 bd3c bdad 9f3e
00000010: 136c 113f faf9 22bf 10f2 e33c e121 753e
00000020: 160f 253f 162e 60bc af06 ea3e c3ed 20bf
00000030: b9b7 dfbd 445e 6bbe 5d74 cfbe 66ab 65be
00000040: 11e2 8d3d 1b1c eb3e 763a 813e de00 0c3e
00000050: 7e9b 063f c1ec 2dbf af84 40be 15d1 39be
00000060: e493 a63e 21c4 843e 1fce bdbe c2b6 babe
00000070: 3732 47bc 2888 6cbd eff7 06bf ea21 8ebd
00000080: 3cc6 d4be 68b9 23be 8b23 b43e 32a3 b5be
00000090: 1f6d 313f c83f fabd 1ce7 34bd b375 b33e
000000a0: f14b 283e b8e7 45be 140b 053e ae6e 053f
000000b0: 7e66 cc3d 4f01 0fbf d955 f0be aa01 a5be
000000c0: 4b2a 8fbe 49a4 ca3e 0889 85be 23c2 bc3e
000000d0: 5325 0a3d 27c4 793f 1be8 873c b9e5 e23e
000000e0: b62c b63e c017 8dbd 7348 163f 2919 30bf
000000f0: c2d3 1f3e 70b6 8abe 4691 5e3c 6b9d fa3d
00000100: 7a03 653e d5fa 1e3f cc5e 913d e33d ba3e
00000110: 30ec 4cbd 0956 983e 26e7 8f3e f448 793e
00000120: 22dc d33c 1979 083e 6c1f fc3d 20f9 3f3f
00000130: 12e4 0d3f 3e09 84be 3beb 1abd f678 a43e
00000140: 66e2 b53d a3ff a9be c008 ac3e eaeb b73e
00000150: eb79 9ebe 02b2 bcbd dab4 223f d73d 9cbf
00000160: 5f44 3e3e 9fe4 9dbe 9424 483e 99e6 5f3f
00000170: 7713 41bf 95e9 aabd 2234 cd3e ed6b 00be
00000180: fcf7 07bf 0235 aa3e 166d c6bd 7f35 8dbe
00000190: a228 15be 850a 7f3f 5ba1 13bf 6dde 213f
000001a0: 1aad 813e d628 1e3f c37a 0d3c dd45 08be
000001b0: a8cc 3fbe 35d9 c73e 2816 373e 6bda 12be
000001c0: b3e5 fcbd 7366 663d a21f 2fbc 89a0 113f
000001d0: 325a b23e 8c98 8cbc d0cb 4bbe 0615 d4bd
000001e0: d5d1 70bd 5716 823f 99cd a83e 1a6b 893c
000001f0: 42d1 063f 0c43 9a3e e93e 713e 5878 913e
00000200: 6acc 523f 1702 ab3e f4d5 2c3e e509 f6be
00000210: 13f1 e03e f6bf 8a3d 6abc 75be c033 ec3e
00000220: ccc7 20bf c6e0 673e db2d fb3e 8463 b53e
00000230: cab8 a7be 9805 4dbf 53a3 23bf 7961 19bf
00000240: 3014 94be ab72 31bf f161 fa3d 42a3 103d
00000250: e96a 823d f135 f03e c8e7 bd3e 29b3 8b3e
00000260: 16db b83e a3af 543f a04b 8abe ce0b 54be
00000270: 10a0 1a3f e249 6c3e ef99 383f 0665 bfbb
00000280: 646d 443d eba3 e13e e3c9 1c3f bbc1 7dbf
00000290: 0f55 5a3f 9a56 0abe 405d 263e d460 03be
000002a0: 3106 153f 087c 173c d9f7 623e 4c16 5a3e
000002b0: c71d abbe c297 4c3d d7e0 fa3d e73e 6b3e
000002c0: dd6c 91bc 6a9f 7c3e ae3d f53c 1039 f4be
000002d0: a09a 2e3e 7aed 153e 31cf 80be a4a3 203e
000002e0: bf90 8c3e d3bf 2a3e 8a0e 473f 7b73 fd3e
000002f0: 24f4 06be ac78 ba3b 18c0 2a3c da85 91bd
00000300: d37c 16bd c145 683d f97d f13e 10d5 293f
00000310: 2b2f 4e3e efec 72be 6330 0c3e dec0 303e
00000320: df57 643e 0cce 333f 9ecf 763e 2334 84bf
00000330: 041d a3bd a8c0 ae3b 0af0 40bf b29b 033f
00000340: 0b65 75be b129 e7bd d94f 933f 535d 473e
00000350: 1298 023c 57a6 923e 25c8 833d 6f73 903f
00000360: 257f d2bd 5b17 a1be 5c02 a2bc e0c5 fabc
00000370: aa4c 2e3f 357e 2e3e 97e6 193f 716e d5bd
00000380: ee1c 1fbf 73db 5abe 6d59 58bc 3528 a9be
00000390: f950 173f ae73 c23d 8a4c 253f dfbc 463f
000003a0: 8c29 35be 1cf9 3c3f 8c22 243f 0452 4d3e
000003b0: 95f0 9a3b 8cd1 20be abf7 c13d 9665 8b3e
000003c0: e22d c8be d23f 513e 03f2 4dbe 8153 c43d
000003d0: 0c43 123f 3723 06bf da7b b93e 07cb 833e
000003e0: 6119 603f 6e23 3c3f 1ce0 b73e 9858 b43d
000003f0: 7b0a 193f 28ac 12be f3f2 62be 5140 0b3f

bias_item.weight f4 [3953, 1]
3.3055266e-38 1.044499 0.009831502 -0.17264694 -0.43622258 -0.24424073 0.6407018 0.13988607
0.24166222 -0.5492925 0.34099305 0.5064409 -0.8694618 0.12161908 0.41962734 -0.4610419
0.58856976 0.66789275 0.26065892 -0.6606466 -0.67570364 0.48324537 0.10000475 -0.38281116
-0.035339303 0.4406496 0.5272754 -0.31075078 0.8773747 0.72354436 0.31832042 -0.1451885
0.77781945 -0.014273869 0.780491 0.10007597 0.865765 0.8501069 -0.67557824 0.5723739
0.7952385 0.65377516 -0.29836097 0.48689517 -0.54250246 0.21493189 -0.07416501 0.87606525
-0.19593771 0.751293 1.3817079 -1.1223938e-38 0.51814115 1.0276093 -0.54933816 -0.48764235
-0.97422653 0.11389282 0.8014024 0.40041375 0.06528461 -0.38288832 0.5084644 -0.21282764
-0.7113512 -0.9519016 -1.4000046 0.32893783 0.30725953 0.4343701 -0.069336556 -1.0169599
0.36316144 0.54295516 -0.4547238 -0.6424064 -0.48195314 0.51129544 0.06916053 -0.53962165
0.53479415 0.09664525 0.4606685 0.7656718 -0.27840763 0.30608442 0.33093697 -0.88517195
-0.3663567 0.26155645 0.346034 -7.00219e-39 -0.6827203 -0.80533874 0.66350126 -0.31773147
0.63063097 0.36486417 -0.55850637 0.41549405 0.046222173 0.45009413 -1.3115423 0.3931766
0.15403679 -0.25534436 0.7018626 -0.011607722 -0.41423544 -5.383182e-39 1.0340592 0.79431415
0.29803985 -0.09877929 0.005795311 1.3859011e-38 0.64605653 0.32822874 0.02644644 -0.08547075
-0.059295814 0.8166837 -0.19716325 0.6429164 0.30821514 0.5084952 -1.3422433 0.023204986
0.7776883 0.35196376 0.22638959 0.26038486 -0.45130545 -0.028268205 0.46052897 -0.3745837
0.59723896 -0.4930973 -0.85409623 0.5370969 -0.10529151 0.36559305 -0.41345996 5.484578e-39
0.31542176 0.1610826 -0.7332469 0.22186527 -0.7653 0.6253817 0.8401584 0.5388412
-0.03495376 -0.41737032 0.28857213 0.2377505 0.6848599 -0.3286063 -0.21778412 0.21360649
-0.95317113 0.5736889 0.47688815 0.20152059 0.47126096 0.26128516 -0.7706576 0.55060655
-0.2616138 -1.1427563 0.074821554 0.34962848 -0.69541687 -0.9538093 -0.77015483 0.26166624
0.81975776 -0.40883756 0.31550688 -0.7236116 0.2791431 -1.1432343 -0.0072252704 0.67033666
0.04864027 -0.268237 -0.2804845 -0.04856838 0.08057148 0.40009627 0.35060674 -0.5958925
-0.120506346 -1.0448684 0.5757767 -0.08035013 -0.43371332 0.16416581 0.111952506 0.312709
-0.55632555 -0.2124238 -0.42021894 -0.25879833 -0.46529678 0.35581246 0.46008617 -0.28421617
-0.6764855 -0.41507506 0.28283426 0.43852434 -1.1520704 0.7894686 0.90718454 0.5590082
-0.18480754 -0.559356 -0.12228813 0.62056077 -1.2123618 -5.202996e-39 0.2836536 0.6131068
0.36587116 0.17814374 -0.14382271 -0.3377811 -0.4961005 0.39348826 0.19327308 0.027633356
0.8614924 0.34774715 -0.73843247 0.4046737 -0.0051695723 -0.1046388 0.12505203 -0.31965297
-0.6896291 0.07125384 0.23823716 -0.64089143 -0.73212844 -0.08241714 0.95157844 0.46050078
-0.23187193 0.64075774 -0.38501498 0.12644489 0.22752848 0.34778926 -0.34231403 -1.1495204
00000000: 51f8 3301 25b2 853f 4f14 213c 5cca 30be
00000010: 9158 dfbe 3e1a 7abe 0805 243f 4b3e 0f3e
00000020: 4d76 773e 6f9e 0cbf a496 ae3e 1ca6 013f
00000030: 0c95 5ebf 6d13 f93d 65d9 d63e af0d ecbe
00000040: 82ac 163f 05fb 2a3f 1675 853e 2320 29bf
00000050: eafa 2cbf f06b f73e 4acf cc3d d3ff c3be
00000060: f2bf 10bd d39c e13e 85fb 063f ba1a 9fbe
00000070: a19b 603f 343a 393f e5fa a23e 4bac 14be
00000080: 2d1f 473f f2dc 69bc 42ce 473f a1f4 cc3d
00000090: c6a2 5d3f 9ba0 593f b2f2 2cbf 1987 123f
000000a0: c094 4b3f cf5d 273f c5c2 98be 534a f93e
000000b0: 71e1 0abf 1b17 5c3e d3e3 97bd d045 603f
000000c0: e5a3 48be bd54 403f cedb b03f c637 7a80
000000d0: e6a4 043f b488 833f 6da1 0cbf 42ac f9be
000000e0: e966 79bf a440 e93d b528 4d3f 0803 cd3e
000000f0: f0b3 853d f009 c4be b92a 023f 7def 59be
00000100: 1d1b 36bf d3af 73bf 5a33 b3bf 8a6a a83e
00000110: 1f51 9d3e c265 de3e 5300 8ebd be2b 82bf
00000120: 4cf0 b93e 1cff 0a3f 8fd1 e8be bf74 24bf
00000130: 90c2 f6be 42e4 023f 09a4 8d3d a524 0abf
00000140: 45e8 083f f2ed c53d bedc eb3e 1103 443f
00000150: 728b 8ebe 19b7 9c3e 9270 a93e a19a 62bf
00000160: 1b93 bbbe baea 853e 5e2b b13e 423f 4c80
00000170: c2c6 2ebf ae2a 4ebf 38db 293f b3ad a2be
00000180: 0871 213f 7acf ba3e 46fa 0ebf a3bb d43e
00000190: 7653 3d3d bd72 e63e 9ee0 a7bf 714e c93e
000001a0: d2bb 1d3e 7fbc 82be 44ad 333f 512e 3ebc
000001b0: ab16 d4be 1f9e 3a80 0d5c 843f 2c58 4b3f
000001c0: ae98 983e cc4c cabd 98e6 bd3b 49e9 9600
000001d0: f663 253f 990d a83e 34a6 d83c 4a0b afbd
000001e0: 2be0 72bd 2f12 513f 2ae5 49be 2b96 243f
000001f0: 60ce 9d3e be2c 023f a1ce abbf 6218 be3c
00000200: 9516 473f 9834 b43e acd2 673e 2a51 853e
00000210: 8211 e7be b992 e7bc 74ca eb3e 6fc9 bfbe
00000220: a7e4 183f 4077 fcbe 0da6 5abf 2f7f 093f
00000230: 13a3 d7bd 032f bb3e 06b1 d3be c6b8 3b00
00000240: f67e a13e d6f2 243e 12b6 3bbf a630 633e
00000250: b3ea 43bf 0419 203f 9f14 573f 7ff1 093f
00000260: ad2b 0fbd 90b1 d5be babf 933e de74 733e
00000270: fa52 2f3f 163f a8be cd02 5fbe a9bb 5a3e
00000280: 0603 74bf 47dd 123f af2a f43e 6a5b 4e3e
00000290: 1e49 f13e 2bc7 853e d149 45bf 8df4 0c3f
000002a0: 3ef2 85be d745 92bf 0b3c 993d 8102 b33e
000002b0: d706 32bf d92c 74bf de28 45bf 1ef9 853e
000002c0: a5db 513f 2853 d1be 1e8a a13e 9c3e 39bf
000002d0: d8eb 8e3e 8055 92bf f6c1 ecbb 2f9b 2b3f
000002e0: 053b 473d 5c56 89be aa9b 8fbe a3ef 46bd
000002f0: a902 a53d 6bd9 cc3e ba82 b33e 698c 18bf
00000300: 08cc f6bd 3fbe 85bf 1a66 133f 9c8e a4bd
00000310: ac0f debe 151b 283e 5b47 e53d 651b a03e
00000320: 5a6b 0ebf a085 59be f026 d7be 3781 84be
00000330: 613b eebe 0d2d b63e 6a90 eb3e c884 91be
00000340: 272e 2dbf b884 d4be a7cf 903e 4386 e03e
00000350: 0b77 93bf 9d1a 4a3f 3f3d 683f 291b 0f3f
00000360: 303e 3dbe f431 0fbf 3372 fabd 12dd 1e3f
00000370: ac2e 9bbf d6a7 3880 0b3b 913e 91f4 1c3f
00000380: 7753 bb3e 506b 363e 4346 13be a5f1 acbe
00000390: e200 febe 4b77 c93e 61e9 453e 595f e23c
000003a0: c48a 5c3f ea0b b23e e909 3dbf 6431 cf3e
000003b0: 8465 a9bb de4c d6bd a40d 003e 8ea9 a3be
000003c0: 888b 30bf 89ed 913d 71f4 733e 7611 24bf
000003d0: c56c 3bbf 51ca a8bd a59a 733f c2c6 eb3e
000003e0: d66f 6dbe b308 243f af20 c5be c57a 013e
000003f0: 3afd 683e 6f11 b23e c943 afbe 7c23 93bf
