Matrix-Factorization-Experiments/models/mf_side_feat.pth (torch_old, 441638 bytes, 5 tensors)

user.weight f4 [6041, 10]
000000 12 39 d5 80 98 77 04 01 8c 90 87 00 95 e4 28 80
       -1.9581434e-38 2.4330375e-38 1.2449646e-38 -3.75542e-39
000010 f5 ae 63 00 90 90 77 00 20 96 b5 00 d9 59 9b 80
       9.154477e-39 1.0980283e-38 1.667608e-38 -1.4266733e-38
000020 34 5e 10 01 16 4b 75 80 bb d8 0c 3f 92 e7 43 be
       2.651621e-38 -1.0771689e-38 0.55018204 -0.19131306
000030 b2 13 2b bf 5d 36 cb 3e 03 cb 73 3e e5 86 a5 be
       -0.6682693 0.39689913 0.23807912 -0.3232948
000040 22 8b ba 3e c1 d7 22 3f 9b cf 2a 3f 41 9e b3 3d
       0.36434275 0.63610464 0.6672303 0.08770419
000050 4a 75 b4 bd 5c 40 21 3e de 03 5d bf 79 b7 5b 3d
       -0.088114336 0.15747207 -0.86334026 0.05364177
000060 cf fb 81 3e 18 c5 11 be c1 84 68 be 79 44 18 be
       0.25387427 -0.14235342 -0.22706892 -0.1486987
000070 ad aa 06 3f 04 95 8d be ef 99 c4 be 5f 5e da 3e
       0.5260418 -0.27652752 -0.38398692 0.42650124
000080 18 fd 09 bf b8 23 bf 3e f8 dd 07 3e b2 84 86 3e
       -0.53901815 0.3733194 0.13268268 0.26273113
000090 84 a9 07 be 50 d3 6b be c2 4c ee bd 23 0f 8d bf
       -0.13248259 -0.23029828 -0.11635734 -1.1020244
0000a0 4a 8e 06 3e 40 7a 02 b9 3e 78 26 bd be 04 cc be
       0.13140216 -0.00012443308 -0.040642016 -0.39847368
0000b0 fd 1e 31 bd b9 ac 39 3e 63 91 30 3f 67 8c 82 3e
       -0.043242443 0.18132295 0.6897184 0.25497743
0000c0 cc 28 c8 bd 02 17 47 be 90 84 de be 08 93 25 be
       -0.097734064 -0.1944237 -0.43460512 -0.16169369
0000d0 26 1f 56 3f d3 b4 e7 3e d0 d1 27 bf 85 0b d5 3e
       0.8364128 0.45255145 -0.65554523 0.4161035
0000e0 e6 a3 ce 3e e8 d7 cd bd f2 b4 45 bf d7 3f b9 3e
       0.4035942 -0.100509465 -0.77229226 0.36181518
0000f0 b4 1b a8 bd 49 6b 9a bd a8 fe 45 bf 5b ae 02 be
       -0.08208409 -0.07539994 -0.773417 -0.12761824
000100 d8 6b 9f be 00 b2 a7 be 8e be c0 be a9 ca c3 be
       -0.31136966 -0.3275299 -0.37645382 -0.38240555
000110 0c 22 10 3f 6b 27 03 bf 2d 3e 0d 3f 67 fa e0 3e
       0.5630195 -0.5123202 0.55173 0.43941042
000120 08 d1 c8 3d e2 80 39 bf fc eb 30 3f 20 61 d7 be
       0.098054945 -0.72462285 0.69110084 -0.42066288
000130 ad 8c cd bd 45 7e 7d 3e b1 11 8d 3e f4 0d fe be
       -0.100365974 0.24755199 0.2755256 -0.4962002
000140 12 33 3e 3e 38 ce 2d 3d 71 a8 81 bd c4 d4 c4 3d
       0.1857417 0.042432994 -0.06330956 0.09610894
000150 c2 26 8b 3e 5c e3 68 bd 03 c7 9b be ea df 06 3f
       0.27178007 -0.05685745 -0.3042527 0.52685416
000160 20 2e 35 be e5 63 f8 3d 76 cc 9c bd 30 55 0f bf
       -0.17693377 0.12128428 -0.07656185 -0.5598936
000170 2d 15 90 be 6b d5 b2 3e 18 1a 47 3f eb ff 3b be
       -0.28141156 0.3492845 0.7777419 -0.18359344
000180 b3 27 87 bd 43 e5 d3 3e a3 16 2f be f7 b8 b0 bd
       -0.06599369 0.4138585 -0.17098479 -0.08629029
000190 04 b0 5e be 2a b8 03 be 37 7e 81 be 6e 48 06 3f
       -0.21746832 -0.12863222 -0.25291607 0.5245427
0001a0 e2 72 25 bf e9 6e bf be f9 b3 e8 be bb e3 3c bf
       -0.6462842 -0.37389305 -0.45449808 -0.7378499
0001b0 f5 01 93 3e f8 a8 af bd 93 e8 b0 3d 1d 84 23 bf
       0.2871243 -0.0857715 0.0863811 -0.63873464
0001c0 bd d8 17 be 8e 68 00 3f 43 8b 0a 3f c0 c0 60 3f
       -0.14828773 0.5015954 0.54118747 0.87794113
0001d0 4b b9 0d 3f 64 49 2f bc e3 57 14 bf 05 72 9b be
       0.5536086 -0.01069865 -0.57946604 -0.30360427
0001e0 16 b0 2a be f6 04 11 3f c3 d1 23 3f d1 d2 b0 3c
       -0.16668734 0.56648195 0.63991946 0.0215849
0001f0 eb 60 2a 3e 51 a1 cc 3e 40 05 49 bf 40 a7 17 3f
       0.16638534 0.39966825 -0.78523636 0.5923958
000200 39 31 ca 3d 11 a8 67 3e 4c d6 5a 3e 5d ab 24 3f
       0.0987267 0.22622706 0.2137081 0.6432398
000210 25 2a 14 be 80 fb 02 3f 2b 25 a8 3e 6f b4 5e 3d
       -0.14469202 0.5116501 0.32840857 0.054371294
000220 5d 74 e2 be 5e 25 c1 3e 47 3e eb 3e 93 a3 61 bd
       -0.44229403 0.3772382 0.4594595 -0.055087637
000230 39 d0 29 bf 4f 28 3b 3d b4 fb 00 3f 41 ef 64 bf
       -0.6633335 0.04569274 0.5038407 -0.8942757
000240 68 80 09 3f 04 9f 0e be 0c 12 c5 bd 92 8b 4b be
       0.5371156 -0.13927847 -0.09622583 -0.1987746
000250 0b d3 eb bd e0 81 93 bf 63 c5 2e 3d 8e a2 c4 bd
       -0.115148626 -1.152401 0.04266871 -0.09601317
000260 8f 4b df be d4 c6 6e 3e b4 43 85 bd f5 13 9b 3e
       -0.43612334 0.23318034 -0.06507054 0.30288664
000270 e7 02 ff be 73 1c aa 3d c2 03 2e 3e 0b 2e 2d bf
       -0.49806902 0.083062075 0.16993621 -0.6764838
000280 cb 27 9f 3e 9d f3 93 3b c8 68 70 bf 44 67 07 3e
       0.31085047 0.004515125 -0.93909883 0.13222986
000290 2c 09 b8 3d 9e 76 60 bf 1b bb 2e be aa 00 95 be
       0.089861244 -0.87680995 -0.17063563 -0.2910207
0002a0 d5 85 95 3e 73 3a da 3e 91 13 12 3d 48 c3 42 3e
       0.29203668 0.42622718 0.03566319 0.19019806
0002b0 6d 3e 7d 3d c6 bc 2f 3e df ba 46 3e 22 f8 15 3e
       0.061827112 0.17161855 0.19407223 0.14645436
0002c0 d6 b9 97 bc 09 65 8b be 02 95 d0 be 31 4f 52 3e
       -0.01852123 -0.2722552 -0.40738684 0.20538022
0002d0 a7 a5 28 bf 37 b5 60 bd 2b 6d 67 be 15 61 01 3f
       -0.65877765 -0.05486032 -0.22600238 0.5053876
0002e0 84 59 62 3f 55 af 96 be dc 68 c2 3e b8 29 b6 be
       0.8841784 -0.29430643 0.37970626 -0.35578704
0002f0 6b 5d 8b be 40 3a 61 3e a4 cb 16 3f 4a d8 b8 be
       -0.2721971 0.21994877 0.5890448 -0.36102515
000300 b3 64 05 be 97 27 6e 3d ae 12 79 3e 67 13 30 3b
       -0.13026695 0.058143225 0.24323532 0.0026867033
000310 2c 19 30 be 0e ff ab be 13 0e 8a be 19 74 61 3e
       -0.17197102 -0.3359303 -0.26963863 0.22016944
000320 ac 71 4a be 50 1b 17 be aa ef 4f 3d fa a3 e4 be
       -0.19769925 -0.14756513 0.05076567 -0.44656354
000330 4b 76 2e 3e df e3 56 3e 21 f5 0a be 30 43 91 3e
       0.17037313 0.20985363 -0.13570072 0.28371572
000340 9d 25 e8 be 30 b5 d6 3d af d2 6e 3f e6 36 f0 be
       -0.45341197 0.104837775 0.9329023 -0.46916884
000350 77 5a 24 3f 59 7d 35 bf 7d 48 8a be e4 7c 89 bf
       0.6420054 -0.7089439 -0.2700843 -1.0741239
000360 f7 5c 2c 3f 81 b2 44 bf 6e df 99 bf 30 5a 7c 3f
       0.67329353 -0.76834875 -1.202131 0.98575115
000370 a1 ae d0 3e 35 17 0a bd 2f 34 b2 3e 17 f4 ca 3e
       0.4075823 -0.03371354 0.34805438 0.3963935
000380 95 ec bf 3e 3e ec b3 be 1f f7 aa 3e 8e 78 00 3e
       0.37485185 -0.35141176 0.33391663 0.12545988
000390 05 2f 2a bf ff 49 94 be 0d 43 1f 3f b8 a7 b8 bb
       -0.66477996 -0.28962705 0.62211686 -0.005635228
0003a0 91 58 14 3f bf 6e d3 bd cc c2 7b 3c cd 7e 9c 3d
       0.5794764 -0.103238575 0.015366267 0.07641373
0003b0 31 3b 3f bf a3 4b 5f bd ef 89 d6 bd b9 2d 84 3e
       -0.74699694 -0.054515492 -0.104755275 0.25816134
0003c0 bb ec cb bd 2c 09 7c 3c 2e ce dd bd 73 f5 8b 3e
       -0.09957262 0.015383046 -0.10830341 0.273357
0003d0 a6 9d 6a 3d cb 3c a8 bd fc 3c 0a 3f 9d 6b 8a 3e
       0.05727925 -0.0821472 0.53999305 0.27035227
0003e0 fe ee d2 be 2b de 11 3f 2f a3 3d 3f 23 fa a0 bd
       -0.41197962 0.56979626 0.74077123 -0.0786021
0003f0 0a 5f 90 3e d0 f4 6b be 84 63 3e 3f 00 a3 9f bd
       0.2819751 -0.23042607 0.743706 -0.07794762

item.weight f4 [3953, 10]
000000 6e 0f 14 80 cb 57 89 80 db ee 59 00 d7 1d b3 00
       -1.842245e-39 -1.2612957e-38 8.259044e-39 1.6449258e-38
000010 97 55 fb 80 e2 30 05 80 5b 79 2f 01 57 58 a5 80
       -2.3081413e-38 -4.76713e-40 3.2229492e-38 -1.5184547e-38
000020 f6 8b 03 81 4e 13 10 81 96 d7 19 bf d8 7e 2d be
       -2.4161317e-38 -2.6462473e-38 -0.60094583 -0.16942918
000030 81 6a e8 be ba c8 87 bc 86 14 1a 3e 92 d8 01 bc
       -0.45393756 -0.016575206 0.15046892 -0.00792517
000040 57 27 ee be f3 c8 ec 3d dc a6 df 3c ba 2c 69 3f
       -0.4651439 0.115617655 0.027301244 0.9108387
000050 93 4c 84 be ba 4c 99 bd 5e 9c 8c be e6 24 ca 3e
       -0.25839671 -0.074853376 -0.2746305 0.39481276
000060 bd 50 9d be 56 73 51 be e3 dd eb be dd 22 ac be
       -0.3072566 -0.20454153 -0.46067724 -0.3362035
000070 8c 43 80 bd 61 57 24 bd d7 39 cb 3e 59 f3 0d bf
       -0.062628835 -0.040122394 0.39692566 -0.55449444
000080 ea ff 2b bf c4 1b 9e 3d 33 98 18 3e e2 e3 04 bf
       -0.6718737 0.077201396 0.1490181 -0.5191022
000090 35 2b b9 be 02 a0 30 bd 03 17 56 be 96 9b 8c be
       -0.36165777 -0.043121345 -0.20907216 -0.27462453
0000a0 c5 71 14 be 7c 3a 6c bc 28 41 1a bf cb 47 21 3f
       -0.14496525 -0.014418241 -0.6025567 0.6300017
0000b0 d4 87 19 bf 01 32 4f 3d b1 19 cf 3e 4d 84 d8 bd
       -0.5997288 0.050584797 0.40449288 -0.10572109
0000c0 7b 3f 17 3f 83 5f 87 3c e9 52 80 3e 07 92 a0 be
       0.5908124 0.016525036 0.25063255 -0.3136141
0000d0 f1 84 76 bf 08 3c d8 3e 10 18 3c be b1 d1 97 be
       -0.962966 0.422333 -0.18368554 -0.2965217
0000e0 fd f0 06 bf 5f d0 0b 3e 4e 1d de 3e d7 4c 04 be
       -0.5271147 0.13653706 0.43381733 -0.12919937
0000f0 54 8c d8 3d 4e a1 b8 bd e5 8f 16 3d 81 e1 bb be
       0.105736405 -0.090151414 0.036758322 -0.36695483
000100 52 08 db 3e c9 01 a9 3e 49 05 8b bd 9b 00 e7 3e
       0.42779785 0.33009174 -0.067881174 0.4511765
000110 52 34 36 3e be c6 f3 bd 94 d8 a1 be df c5 c1 be
       0.17793396 -0.119031414 -0.31610548 -0.37846276
000120 cd 93 43 bf a3 a2 7e be 25 66 5c be 4b 63 6a be
       -0.763974 -0.24866728 -0.2152334 -0.2288944
000130 e2 96 18 be 12 71 a0 be e7 72 9e 3e 1e 40 35 be
       -0.14901307 -0.31336266 0.3094704 -0.1770024
000140 f4 3f d5 3b 07 50 71 3f 1a 9f 0b be 77 1c c7 3d
       0.006507868 0.9426274 -0.13634911 0.09722226
000150 68 d6 a5 be f4 6d a1 bd 00 f9 f7 be 71 3b 41 3f
       -0.3239014 -0.078823 -0.4843216 0.75481325
000160 9e 68 ac bb 12 0b 0e bf bf fc 65 3f 92 c3 c1 3e
       -0.005261495 -0.5548564 0.89838785 0.3784452
000170 3c 08 74 be b3 7e c0 be f7 d0 de be 69 d3 a3 3e
       -0.23831266 -0.37596664 -0.43518803 0.3199723
000180 f6 e7 30 bf a7 6a 2c be c3 ae dd 3d 6d 33 45 be
       -0.69103944 -0.1683756 0.10824349 -0.19257899
000190 9b 44 0a 3e a1 5e 8f 3d 77 e6 28 be ef e8 9b be
       0.13502733 0.07000471 -0.16494165 -0.30451152
0001a0 d9 70 b1 3e 5c 80 72 3e 02 35 28 bf cb 45 01 bf
       0.34656408 0.23681778 -0.65705884 -0.5049712
0001b0 3e 5b ee 3c d4 57 1a 3d 54 f7 c0 bc f6 34 a1 3b
       0.029096242 0.037681416 -0.023555435 0.0049196435
0001c0 eb de 54 bf 0b f7 74 be 27 b4 8a 3c 36 e7 c4 3e
       -0.83152646 -0.23922364 0.016931606 0.3845765
0001d0 84 d7 ad be 03 7c a0 be 51 a8 c9 3d 27 bd 58 3e
       -0.33953488 -0.31344613 0.09846557 0.21165906
0001e0 30 43 41 bd f6 d7 6a be dc 6b 5a 3e f6 43 5c bf
       -0.047183216 -0.22933945 0.21330208 -0.860412
0001f0 da 70 4c bf aa d6 2e bf ce 5e 47 bf 7c 8e d8 be
       -0.798597 -0.682963 -0.77879035 -0.42296207
000200 11 a2 2f be 74 68 bd be 7e c6 c6 be 79 63 64 3e
       -0.17151667 -0.36993754 -0.38823313 0.22303571
000210 43 f9 26 bf fb 7c 02 3f c6 42 16 bd 83 f3 ab be
       -0.65224093 0.50971955 -0.036684774 -0.33584222
000220 75 37 91 be da 86 e8 3e f6 98 56 bd 30 55 1b bf
       -0.28362623 0.45415384 -0.05239197 -0.6067686
000230 8c 8b 05 3f 5c 94 68 3e e3 6a f5 3d ca 78 83 be
       0.52166057 0.22712845 0.11983278 -0.25678092
000240 5a 1d 49 3e 80 fc d5 3d 79 ed 16 3f c3 46 b4 bd
       0.19640103 0.10448551 0.58956105 -0.08802559
000250 51 93 44 3f 04 07 6d 3e c4 91 9d be 3a 88 36 3c
       0.76787287 0.23147207 -0.30775273 0.011140877
000260 fc 22 de be dc 76 97 3c ad 97 68 bf 76 5e 19 bc
       -0.43386066 0.018489294 -0.9085644 -0.0093609
000270 bc 2b 05 bf 8f e7 18 bf 91 a3 f5 be 43 a9 5d bf
       -0.5201986 -0.5972833 -0.47976354 -0.865864
000280 7c a6 bf 3e 2e c2 e8 be ad f3 d6 3d 74 55 a0 bb
       0.37431705 -0.45460647 0.10495696 -0.0048929993
000290 bc 25 13 3f 99 80 cd 3e d8 90 67 3b a4 c3 b6 3e
       0.57479453 0.40137175 0.0035334136 0.35696137
0002a0 72 88 a1 3d 4c e8 32 be 0b 19 56 bf d7 3c 54 bd
       0.07887353 -0.17471427 -0.8363196 -0.051815834
0002b0 fa 12 c2 be a9 8b e4 3e 41 6a 85 be 5a 98 7c be
       -0.37905103 0.44637802 -0.26057628 -0.24667493
0002c0 d7 72 83 3e 2a a0 46 be 67 67 2d 3e d2 f4 5a 3f
       0.25673553 -0.19397035 0.16933976 0.85529816
0002d0 35 dd 87 bb 34 74 ba be 18 c7 e3 3e 84 27 54 be
       -0.004146243 -0.3641678 0.44487834 -0.20718199
0002e0 6f 37 03 3f db 1b 63 3d fe e8 c0 be b4 37 e9 be
       0.5125646 0.055446487 -0.3767776 -0.4555031
0002f0 91 c2 00 bf 9c 26 4b bf 50 d7 2e 3d 15 81 a1 bf
       -0.50296885 -0.7935579 0.042685807 -1.2617518
000300 1e 71 24 be 0f 95 ab be 88 f6 ee 3d 5d e7 4b be
       -0.16058776 -0.3351216 0.11668116 -0.19912477
000310 37 e5 66 bf 1a 8b 39 3f 1d ba 1a bf 97 ed b0 3d
       -0.90193504 0.7247788 -0.60440236 0.08639067
000320 6a 62 ff 3d 59 82 60 bd 5b 54 97 be 20 0f 71 be
       0.12469943 -0.05481181 -0.29556546 -0.23540926
000330 ad 71 e6 be 77 26 2b 3f 8a 80 fb be d5 ef 5b 3e
       -0.45008603 0.6685557 -0.49121505 0.21478207
000340 cb f1 f0 3d 67 fb 1d bf b5 e0 1a be ee 85 bb bb
       0.11764868 -0.61711735 -0.15124781 -0.005722753
000350 8a 84 3e 3e 05 38 00 bf a6 bd 22 3d 71 ad 15 3f
       0.18605247 -0.5008548 0.039731644 0.58467776
000360 d2 30 b3 3d f7 ce 84 be cc f0 30 3c 0c 83 08 3f
       0.08749546 -0.25939152 0.010799598 0.5332496
000370 79 16 cd 3e f7 5f fc bc eb 83 19 bf f9 1a cf 3d
       0.40056208 -0.030807478 -0.59966916 0.101125665
000380 31 1b 24 3e e1 d2 df 3e 60 51 9e be be 3f 9a bd
       0.16025998 0.43715575 -0.3092146 -0.07531689
000390 e0 59 95 3e 0b 6b e0 3d aa e2 7d 3f 60 c9 44 3e
       0.29170132 0.10957917 0.99173987 0.19217443
0003a0 0b fe 0a bc 31 47 63 be 43 87 07 bd 52 ff 13 3e
       -0.00848342 -0.22195126 -0.03308798 0.14452866
0003b0 f8 46 31 bf fb f8 c9 3c bd ce c4 3e cb 5e 09 bf
       -0.69248915 0.024654856 0.3843898 -0.5366027
0003c0 3d 8d 57 be 73 9f 44 3d 4f b5 99 be 60 c2 fa 3e
       -0.21049972 0.048003625 -0.3002114 0.4897642
0003d0 97 f8 9c be 98 b2 3c 3e 33 a5 48 be 52 99 44 3d
       -0.3065841 0.18427503 -0.19594269 0.04799778
0003e0 0c 0f b4 3d ff dd f9 be 59 13 7a be a3 17 c3 be
       0.087919325 -0.48802182 -0.24421443 -0.3810397
0003f0 ce d7 79 3e b7 8b 2b 3e de 42 f1 3b 13 8a 5a 3f
       0.24398729 0.16752516 0.0073627075 0.85366935

occu.weight f4 [21, 10]
000000 a5 03 c5 3a 51 8b 81 3d 1c 36 0c 3d 36 10 4d 3b
       0.0015030993 0.063254006 0.03423129 0.003129018
000010 8b 25 47 be 50 f2 b5 bd 95 0f d3 3d e7 44 bf bd
       -0.19447915 -0.08884108 0.103057064 -0.09339314
000020 65 96 b8 bc be af 4b be 80 d4 be 3d 29 83 9f 3d
       -0.022532651 -0.19891259 0.09317875 0.07788689
000030 27 b5 64 3d af af 7c 3d d2 2c 0b be 67 27 e3 bd
       0.055836823 0.061690982 -0.13591316 -0.110915
000040 d5 dc 81 3c dd 46 c6 3b 03 14 62 bd 50 83 31 be
       0.015852371 0.006050928 -0.055194866 -0.17335248
000050 5c 1c 3f 3d f9 1f b7 3d 3d 4f 1a 3c 10 1a e1 bc
       0.046657905 0.08941645 0.009418306 -0.027478248
000060 6f 08 ed bd 50 75 b1 bd b6 a8 8b 3d 79 3d 82 bd
       -0.11573874 -0.08664954 0.068192884 -0.06359381
000070 ad 53 05 bd eb 86 38 be b6 0e 85 3d 52 e2 bc 3d
       -0.032550503 -0.18020217 0.064969465 0.09222855
000080 64 69 7b 3d 9c f3 14 bc a8 ef d1 bd 3e 0d e6 bd
       0.061379805 -0.009091284 -0.10250789 -0.112329945
000090 ee 7e 41 3d 52 9d e1 bc 8f 69 ff bc ab 95 5e be
       0.04724019 -0.027540836 -0.031178264 -0.21736781
0000a0 6a 4c 30 3d 61 b8 30 3e 31 ae 90 3d 0b 00 d4 bc
       0.043041624 0.17257835 0.070644744 -0.025878927
0000b0 43 cc 1c be 19 5c 07 be cc e4 0a 3e 0e 1a 97 bc
       -0.15312295 -0.13218726 0.13563842 -0.018445041
0000c0 0e 9b 2f 3c a1 c7 41 be d4 d2 ef 3c d2 a4 ae 3d
       0.01071812 -0.18923809 0.029275335 0.08527531
0000d0 5b 11 ca bc 05 36 a0 3d b2 b4 0d be bc 89 09 be
       -0.024666479 0.078228034 -0.13838461 -0.13431448
0000e0 26 27 3e 3e 95 e8 ec bd b3 03 36 3d 38 3a 43 be
       0.18569621 -0.11567799 0.04443712 -0.19065177
0000f0 9d 41 a0 3d 78 39 1b 3e ad cc be 3d b0 10 dd 3d
       0.07825015 0.15158641 0.093163826 0.107941985
000100 17 a0 31 be 07 61 30 be 55 43 c9 3d 3c 17 55 bd
       -0.17346226 -0.17224513 0.09827296 -0.05202411
000110 41 e9 20 bd 25 00 30 be 52 6a 7b 3d 16 77 8d 3d
       -0.03928495 -0.17187555 0.06138069 0.069074795
000120 40 de 07 3d 51 af 12 3d 5d 98 2a be 36 53 37 be
       0.03317094 0.035811726 -0.16659684 -0.17902836
000130 bf 96 0e 3e 62 17 89 bd d3 05 8a bc 04 a4 48 be
       0.13924693 -0.06693913 -0.01684848 -0.19593817
000140 1b 26 99 3d b9 03 e2 3d dc 4f 08 bd 97 83 14 bd
       0.07477971 0.11035866 -0.033279285 -0.036258306
000150 82 af 7d bd 73 5a db bd 03 5d 0b 3e b4 9e 43 3d
       -0.061934955 -0.10710611 0.136097 0.047758773
000160 3d 96 e3 3c 64 bd 72 be 89 c9 9f 3d 34 8e 02 3e
       0.0277816 -0.2370506 0.07802112 0.12749559
000170 36 03 17 3e d5 3e 3b 3d c2 73 1a be 1e 81 19 be
       0.14747319 0.04571422 -0.1508322 -0.1499066
000180 a6 2d 7b 3d a6 04 0e 3d d4 39 8d 3d 0d 25 4c be
       0.06132283 0.0346724 0.068957955 -0.19936009
000190 24 44 d4 3d 63 7f 01 3e cd 97 ce 3c 8c 70 59 ba
       0.10364559 0.1264625 0.025218869 -0.0008294664
0001a0 67 a5 05 be 08 6e ba bd c2 15 8b 3e c3 f8 3a bd
       -0.13051377 -0.09103018 0.27165037 -0.045647394
0001b0 ab 91 b6 bb a6 8d 37 be 43 3f 69 3c 31 24 90 3d
       -0.005571564 -0.17925128 0.014236274 0.07038153
0001c0 9b cd d3 3b c5 28 6f 3d d2 8d 1e be 31 c6 12 be
       0.006463719 0.05838849 -0.15483788 -0.14333417
0001d0 3d 8e 17 3d 14 51 3b bc 57 23 8b bd 33 e8 3f be
       0.037000883 -0.011432905 -0.0679385 -0.1874092
0001e0 a3 8f af 3d 18 77 d7 3d 9f d6 93 bc 22 27 0c 3e
       0.085723184 0.10520762 -0.018046675 0.13686803
0001f0 4c 2d 0d be 20 8f 32 be ce ac fb 3d 92 d8 2e bd
       -0.1378681 -0.1743741 0.12288819 -0.042687006
000200 bc 78 a0 3c bd bf 39 be 78 f8 f1 3d f8 68 2e 3d
       0.01958882 -0.18139549 0.1181497 0.042580575
000210 0f ae a7 3d 8a f7 71 3d 3e 8f 26 be 19 7a d6 bd
       0.08187496 0.059073962 -0.1626558 -0.10472507
000220 e1 d7 f3 bc bb 49 c2 3b 2e 65 cc bd 3a 59 3f be
       -0.029766025 0.0059291995 -0.09980236 -0.18686381
000230 90 36 2f 3c 59 c6 be 3d 23 a5 8c 3d a7 18 49 3d
       0.010694161 0.093151756 0.06867435 0.049095776
000240 21 c1 05 be ab 78 13 be 31 e3 e0 3d 4d d2 29 bd
       -0.13061954 -0.144015 0.10980833 -0.041460324
000250 67 7f f4 bc 54 4e 26 be 61 16 98 3d 61 6f 82 3d
       -0.029845906 -0.16240817 0.074261434 0.063689
000260 03 33 a3 bd 41 4d 92 bd 54 ad 55 be 5e 12 0b be
       -0.07968714 -0.07143641 -0.208669 -0.13581225
000270 0e b9 cd 3d 63 73 76 bd 34 a4 3f 3d 1e a0 4c be
       0.10045062 -0.060168635 0.046787456 -0.19982955
000280 29 b8 d0 bc 01 37 d2 3d 5a 2a 53 3d f5 3f f3 3d
       -0.02547844 0.102643974 0.05155406 0.11877433
000290 48 7f fc bd c6 6a 2b be e7 ad 70 3d b0 7e 6c bd
       -0.123289645 -0.1673995 0.058759596 -0.057738006
0002a0 1b af a3 3b fb af 73 be d7 fa 09 3e 80 ca ca 3d
       0.0049952394 -0.237976 0.13474594 0.09901905
0002b0 af d6 3e 3d b6 e2 47 3d 7f 6c 32 be b5 4c 1d be
       0.046591457 0.048800193 -0.174242 -0.15361293
0002c0 c6 4c 01 3e e0 24 7a bd e3 28 00 bd c1 e9 4f be
       0.12626943 -0.061070323 -0.031288993 -0.20304014
0002d0 64 e2 97 3a 68 e8 dc 3d 03 8c ab 3d 70 62 bf bc
       0.0011587855 0.107865155 0.083763145 -0.023362368
0002e0 d6 36 bc bd ab 8d 02 be 89 7f 0e 3e 3f e0 96 bd
       -0.091901466 -0.12749355 0.13915838 -0.0736699
0002f0 51 45 96 3b 5f e7 d1 bd fa c8 64 ba 8a 14 f6 3d
       0.0045859 -0.10249209 -0.00087274576 0.12015636
000300 ad 68 a3 bb 07 81 8b 3c cd ee 2f be 49 9f 88 bd
       -0.0049868436 0.017029298 -0.17180939 -0.06671006
000310 04 11 d6 3d 78 c6 83 bb 47 45 0d 3d f1 f1 52 be
       0.10452464 -0.004021462 0.034489896 -0.20600106
000320 43 41 4b 3d c2 b3 de 3d c0 13 44 bc 7c 50 18 3d
       0.049622785 0.1087413 -0.011967599 0.03718613
000330 c1 b1 2d be c4 7a 3a be 3c 31 e9 3c 34 b8 49 bd
       -0.16962339 -0.18210894 0.02846586 -0.049247935
000340 62 19 3c 3c ca e4 12 be
       0.011480661 -0.14345089

bias_user.weight f4 [6041, 1]
000000 e6 a3 09 01 7e 44 98 3d 80 64 f8 bb 72 c4 db 3e
       2.5280517e-38 0.07434939 -0.00758034 0.42923313
000010 2c 31 d5 3e 16 7b 0e bf c9 3b 62 3e 34 0a d7 3e
       0.41639078 -0.55656564 0.22093119 0.41999972
000020 f4 35 e5 3e e7 0d b4 bd 67 6b 07 3f ee 0b 15 bf
       0.44767725 -0.08791714 0.5289826 -0.5822133
000030 2f 4c 0e 3e ba 38 9f be a1 74 aa be bf 04 e3 be
       0.13896249 -0.31097966 -0.33292106 -0.44339558
000040 52 a5 04 3e 59 00 0f 3f 5d ee 61 3e cc 55 87 3c
       0.1295369 0.55859905 0.22063585 0.016520403
000050 36 11 02 3f 53 59 e0 be 14 f9 89 be 03 29 f6 bd
       0.5080751 -0.4381815 -0.26947844 -0.12019541
000060 a3 88 66 3e c5 17 a6 3e 5b c1 fc be de cb 10 be
       0.2251306 0.3244001 -0.4936627 -0.14140269
000070 5d 0d 99 bd 2f cf 08 be bf d3 fa be 38 6a 74 bd
       -0.07473252 -0.13360284 -0.48989674 -0.05967161
000080 ce f5 ec be 78 f7 37 be 0a f9 97 3e cd 2a dd be
       -0.46281284 -0.17965496 0.2968219 -0.43196717
000090 91 6c 27 3f 08 ab 90 be 44 82 15 bb d0 e8 fe 3e
       0.65400034 -0.28255486 -0.002281324 0.49786997
0000a0 1a 17 f0 3d df ad 30 bd 4b ba 9f 3e 34 e0 fb 3e
       0.11723156 -0.043134566 0.31196818 0.4919449
0000b0 3e 23 ed 3d cb 32 31 bf b7 42 87 be 1a b5 ae be
       0.115789875 -0.6921813 -0.26418087 -0.34122545
0000c0 47 26 7c be 4d 3f 1e 3e d9 46 8f be d4 74 dd 3e
       -0.24623977 0.15453835 -0.2798374 0.43253195
0000d0 25 85 8c bd f6 59 84 3f b5 f6 ad bd 59 ae d5 3e
       -0.06861333 1.0339954 -0.08494321 0.4173458
0000e0 6e 72 15 3e e8 f1 8a be dc ba e4 3e 21 7d 1f bf
       0.14594433 -0.27137685 0.44673812 -0.62300307
0000f0 41 ad 75 bd 0f 17 8e be 2c 72 b2 bc 72 b4 57 3e
       -0.05997968 -0.27751967 -0.021782957 0.21064928
000100 07 c1 2e 3d 09 6f 38 3f 58 a6 52 3e 1f 26 91 3e
       0.042664554 0.72044426 0.20571268 0.28349397
000110 00 a5 39 3d dd 8b 8f 3e a6 fb 8a 3e d0 36 be bd
       0.045323372 0.28036395 0.27145118 -0.092877984
000120 8f a9 cb bd 48 59 45 3e ee 7a 08 3e 86 d1 2f 3f
       -0.0994445 0.1927234 0.13328144 0.6867908
000130 f2 ab 17 3f 13 c5 8c be 69 54 9d 3c 01 1d 9e 3e
       0.5924674 -0.27494106 0.019205289 0.30881503
000140 de 25 ae 3d d0 85 9d bd 20 f7 17 3f 2c 35 bb 3e
       0.08503316 -0.07691538 0.5936146 0.36564004
000150 79 7f a6 be 2f 89 a7 be 7a 6d 58 3f 47 f3 67 bf
       -0.3251913 -0.3272185 0.8454205 -0.90605587
000160 2d 33 16 3e 7e 1d 9a bd 34 62 17 3e bf a5 4d 3f
       0.1466796 -0.075251564 0.14783555 0.80331033
000170 3f eb 60 bf 7f 2d ee bd 95 fa 0e 3f b7 d9 a9 3d
       -0.8785896 -0.116297714 0.5585111 0.08293479
000180 c0 9a cb be 2c b1 50 3e e1 82 16 3e b5 08 36 be
       -0.39766502 0.20380086 0.14698364 -0.17776759
000190 00 39 9f be 2b 4a 77 3f b6 49 11 bf 5a 4e 02 3f
       -0.31098175 0.96597546 -0.567531 0.50900805
0001a0 4e 13 96 bd 98 f7 db 3e cc b4 2e 3e 65 2f 23 be
       -0.07327901 0.42962337 0.17061156 -0.15936048
0001b0 20 8d 3a be e4 a5 c3 3e e0 11 58 3e 99 72 5d 3d
       -0.18217897 0.38212502 0.21100569 0.054064367
0001c0 43 21 11 3e d2 29 0f be 27 43 94 bd 34 c9 0c 3f
       0.14172845 -0.13980797 -0.07239371 0.5499451
0001d0 c6 34 fd 3e a9 4c c4 bd 70 94 54 3a d4 a4 7d 3e
       0.49454325 -0.09584934 0.0008109277 0.24769908
0001e0 cd 5d 0d be d9 d1 82 3f 30 03 82 3d e9 28 a2 bc
       -0.13805313 1.022029 0.06348264 -0.019794898
0001f0 ad 68 f5 3e 01 da 8f 3e 6e ef ca 3d ca 79 53 3e
       0.47931424 0.2809601 0.09908949 0.20651928
000200 c4 48 40 3f db e8 a5 3e b5 eb b8 3e b3 96 19 bf
       0.7511103 0.32404217 0.3611733 -0.59995574
000210 3f 00 c7 3e 14 11 8d bd 78 65 95 be d8 99 c7 3e
       0.38867375 -0.06888023 -0.29178977 0.3898456
000220 03 cb 27 bf 2b 73 99 3e ee c5 da 3e 9b b0 92 3e
       -0.65544146 0.2997068 0.42729133 0.28650364
000230 20 00 9a be f5 9e 2f bf 3d 67 1c bf 50 72 00 bf
       -0.3007822 -0.68601924 -0.6109503 -0.5017443
000240 53 db ef be 60 88 38 bf 9d 96 99 3c b9 fc a0 bc
       -0.4684702 -0.7208309 0.018748576 -0.019651758
000250 12 5c 25 3e 1f 54 04 3f e3 38 8d 3e 17 a6 a5 3e
       0.16148403 0.5169086 0.27582464 0.3235328
000260 33 cf 4e 3e 2c 83 00 3f 21 7b be be 46 a1 2e be
       0.20196228 0.5020015 -0.37203315 -0.17053708
000270 89 a0 15 3f 08 ae 65 3e 60 f8 3a 3f dd 76 4d bd
       0.5844808 0.22429669 0.7303524 -0.050162185
000280 1a 1a 09 be 66 5a de 3e 2f ee 44 3f 01 9b 6f bf
       -0.13388863 0.43428344 0.7692594 -0.9359589
000290 58 08 3c 3f 7d d0 37 3d 07 c1 9b 3e f5 f9 1d be
       0.7345023 0.044876564 0.30420706 -0.15427382
0002a0 b3 f9 13 3f 48 d1 ab 3c 54 b3 7a 3e 41 05 8b 3e
       0.57802886 0.020973817 0.24482471 0.27152446
0002b0 e2 5b 49 be 63 9c c2 bd 51 fb 0b bd 9b 97 ae 3e
       -0.19663957 -0.09502485 -0.03417522 0.3410004
0002c0 5f b1 ab bd 1b 6d 33 3e 35 ec e3 3d 46 59 05 bf
       -0.0838344 0.17522089 0.11129037 -0.52089345
0002d0 e6 21 14 3d 5c ba 1e 3e 33 9f bb bb ed a1 5c 3e
       0.03616514 0.15500778 -0.005725765 0.21546145
0002e0 43 88 c4 3e 4c 69 37 3c 9b 93 4b 3f ef 46 19 3f
       0.3838521 0.011194538 0.79522103 0.5987386
0002f0 dc d1 9b 3c da b9 68 3b 98 c8 f1 bd 66 db 0f 3d
       0.019020967 0.0035511167 -0.11805838 0.035121344
000300 c2 4b 30 3b 9d 4c 97 bd c3 23 ee 3e 64 aa 07 3f
       0.0026900624 -0.0738766 0.4651166 0.5299437
000310 39 c7 d5 bc 45 14 77 be 7f 78 92 3e 28 7a 2d 3d
       -0.026095973 -0.24128826 0.28607556 0.042352825
000320 20 17 06 3e 7e 7c 07 3f 54 9a 14 3e 10 0c 96 bf
       0.13094759 0.52924335 0.14511997 -1.1722431
000330 5a 5d 00 3e e2 0a 6b bd 6a fb 30 bf bf 72 fa 3e
       0.12535611 -0.057383426 -0.6913363 0.4891567
000340 1f f1 8a bd 6c f1 ad be b7 b6 6d 3f 15 c6 ae 3e
       -0.067842714 -0.33973253 0.92856926 0.341355
000350 8a 5a 8e bd a0 2d ae 3e cb 2d 73 3e d8 f7 9f 3f
       -0.06950863 0.34019184 0.23747937 1.2497511
000360 9b cd 30 be b3 06 80 be d8 25 83 3d 4e f6 cf bd
       -0.17265932 -0.2500511 0.064037025 -0.10154401
000370 ed a7 10 3f 3e 70 38 3e c3 09 0d 3f f8 26 54 bc
       0.56506234 0.18011567 0.5509302 -0.012948744
000380 02 7c 1b bf 1e 66 95 be 3c 13 9e bc 88 4d 5d be
       -0.60736096 -0.29179472 -0.019296281 -0.21611607
000390 3f 7f 32 3f ef 4b 10 bd 9a eb 30 3f f6 30 30 3f
       0.6972541 -0.035228666 0.691095 0.6882471
0003a0 d0 d6 5c bd 79 8b 1f 3f eb ff 07 3f 03 15 2a 3e
       -0.0539158 0.62322193 0.53124875 0.16609578
0003b0 14 27 ff bb 96 8c 5f be a6 f3 47 3c 20 d1 91 3e
       -0.007786641 -0.21830973 0.012204086 0.28479862
0003c0 48 9f 90 be 88 8a 8b bb c3 b6 3f be 12 b5 aa ba
       -0.28246522 -0.0042584576 -0.18722062 -0.0013023934
0003d0 ec 65 ff 3e d7 0e 20 bf ca 5e 0e 3f 92 05 68 bd
       0.49882448 -0.62522644 0.55613387 -0.056645937
0003e0 9f 8c 58 3f e7 e4 d7 3e e3 1e 77 3e 05 40 9d 3d
       0.8458957 0.42166826 0.24132876 0.076782264
0003f0 63 3c 15 3f 19 15 67 be 85 1e c0 bc 21 35 25 3f
       0.5829527 -0.22566642 -0.023452053 0.64534193

bias_item.weight f4 [3953, 1]
000000 cb 6a 45 80 31 3c 85 3f a5 84 9e 3c 29 78 03 be
       -6.37496e-39 1.0408994 0.01935036 -0.12838806
000010 0d 38 c2 be 6f fc 8c be 87 69 29 3f a4 1a 46 3e
       -0.37933388 -0.27536342 0.66176647 0.193461
000020 cc 1e 62 bd 74 54 0e bf 2a 8f aa 3e 5e 2d f0 3e
       -0.05520515 -0.55597615 0.3331235 0.46909612
000030 40 e4 80 bf c4 6e 37 3e 20 e7 4d 3e 8a 8b 2c bf
       -1.0069656 0.17913347 0.20107698 -0.6740042
000040 b2 7d 2c 3f 91 12 27 3f 73 4e 05 3d 49 ac 5a bf
       0.67379296 0.65262705 0.032545518 -0.85419136
000050 b2 e9 11 bf fc f9 e0 3e 97 00 77 3e 76 41 e3 be
       -0.56997216 0.43940723 0.24121319 -0.4438588
000060 02 8e 89 3d af 13 0b 3f 0d 9c f5 3e 9f 85 73 be
       0.06716539 0.5432691 0.4797062 -0.23781441
000070 13 5a 53 3f d7 4d 36 3f 26 d0 8e 3e 38 7d a2 bd
       0.8255932 0.71212524 0.2789318 -0.0793404
000080 bb c9 43 3f b1 82 40 bd cd c2 37 3f 5b 26 06 3e
       0.7647969 -0.046999637 0.7178162 0.13100569
000090 89 c9 44 3f e3 84 62 3f e4 61 29 bf f3 33 09 3f
       0.7687002 0.8848402 -0.66164994 0.53594893
0000a0 7f 5c 21 3f 61 71 25 3f b2 86 84 be c2 b5 c4 3e
       0.6303176 0.6462613 -0.25884014 0.3841992
0000b0 14 f2 01 bf 0e b2 90 3e 09 90 46 be d2 f9 61 3f
       -0.50760007 0.28260845 -0.19390883 0.8827182
0000c0 ce 8d 7e be a9 e2 22 3f bf aa ab 3f e3 ed 69 00
       -0.24858782 0.63627106 1.3411483 9.728065e-39
0000d0 29 0a af 3e 53 63 94 3f 94 54 ef be fe 2c dc be
       0.3418744 1.1592811 -0.46744215 -0.43003076
0000e0 aa 7f 4c bf df 61 fe 3d 9b 24 44 3f b5 57 ba 3e
       -0.798823 0.12421011 0.76618356 0.3639504
0000f0 da fe f7 bc d6 3e 9c be 82 d0 db 3e cb c9 ff be
       -0.03027289 -0.3051669 0.42932516 -0.49958643
000100 5b 53 60 bf 68 9f 87 bf 95 f2 c2 bf 5f 0c 0d 3e
       -0.8762719 -1.0595522 -1.523028 0.1377425
000110 60 f6 a7 3d 01 61 c9 3e 9b 3b 72 be 52 1b 6d bf
       0.08201289 0.3933182 -0.2365555 -0.9261981
000120 ac 2b 7a 3d 45 1d 2a 3f 73 b8 d9 bd b9 63 71 bf
       0.061076805 0.6645091 -0.10630884 -0.9429279
000130 0b 96 88 be 55 08 24 3f f1 ea 39 3e 39 e8 01 bf
       -0.26676974 0.64075214 0.1815603 -0.5074497
000140 59 1b 05 3f 93 58 da 3d 7f e2 38 3f 8b 30 4a 3f
       0.51994854 0.106614254 0.72220606 0.7898032
000150 94 b4 ec bc fe 2b 4c 3e 64 33 40 3e ec e8 63 bf
       -0.0288947 0.19938657 0.18769604 -0.89027286
000160 12 d4 64 be d9 21 09 3e 2d cb 99 3e 74 a1 15 00
       -0.22346523 0.13391818 0.30037823 1.986464e-39
000170 6c 94 5f bf 5f ad 81 bf 3f c0 28 3f 30 cb 31 be
       -0.8733585 -1.0131034 0.65918344 -0.17362666
000180 3c 35 0b 3f d1 4a 14 3f a8 fc 27 bf 3c b2 96 3e
       0.54378104 0.5792666 -0.656199 0.29432857
000190 00 a0 08 3e ed 4b 2c 3f fb 44 9e bf ab 35 4a 3e
       0.13342285 0.67303354 -1.2364801 0.19747035
0001a0 2c 31 a1 3d 76 2b 0f be a7 02 35 3f 4c ec 98 be
       0.07870707 -0.13981423 0.7070717 -0.2986778
0001b0 61 8f 73 bd 33 da c8 80 c1 d3 91 3f fa 6c 6b 3f
       -0.05946291 -1.8445374e-38 1.1392747 0.9196316
0001c0 71 8d 80 3e 4b 3d 2f bd b0 6c fe ba bc 03 c6 80
       0.2510791 -0.042783063 -0.0019411054 -1.8184768e-38
0001d0 cb 3f 40 3f 1c 5f a8 3e 79 89 99 3d 4c 89 b6 bd
       0.7509734 0.32885063 0.07496924 -0.08912906
0001e0 bc 19 de bb 13 15 45 3f 7f 60 c7 be 32 0c 07 3f
       -0.00677797 0.7698528 -0.38940808 0.52752984
0001f0 a4 78 fc 3e 38 d2 f8 3e 0e 97 ab bf 12 c9 e1 bb
       0.49310791 0.48597884 -1.3405473 -0.0068904245
000200 59 53 51 3f 07 14 e1 3e 96 22 68 3e 92 a7 07 3e
       0.81767803 0.43960592 0.22669443 0.13247517
000210 b6 b6 22 bf 57 c5 0c be 53 e7 18 3e 37 a0 c3 be
       -0.63560045 -0.13747154 0.14931993 -0.38208172
000220 fd 55 14 3f 8a 74 d4 be a2 ec 55 bf b3 a0 ee 3e
       0.5794371 -0.41495162 -0.835642 0.4660698
000230 16 2e f5 bd e8 2b f4 3e a5 17 a5 be 93 11 d2 00
       -0.11971681 0.47689748 -0.32244602 1.9291759e-38
000240 17 17 8a 3e a4 92 0f 3d 27 94 70 bf a9 54 86 3e
       0.2697074 0.035051957 -0.9397606 0.26236466
000250 55 6e 04 bf ce b9 16 3f ff 7d 57 3f fb 29 e7 3e
       -0.51730853 0.58877265 0.8417663 0.45149216
000260 2d 44 4c be 9a de f6 be 71 93 b6 3e b8 f3 cb 3e
       -0.19947882 -0.48216707 0.35659364 0.3983438
000270 54 6a 51 3f 4b 06 99 be a9 1d b6 be 65 0c fe 3d
       0.8180287 -0.29887614 -0.35569504 0.12404708
000280 59 40 5f bf 1d 70 0f 3f f5 12 18 3f a2 3d 04 3e
       -0.8720756 0.56030446 0.59403926 0.12914136
000290 ee aa bd 3e 00 0c 94 3e b8 34 72 bf 13 6e 04 3f
       0.37044472 0.28915405 -0.9461169 0.5173046
0002a0 f3 6a bb be c5 a8 a1 bf d9 b9 d1 bc 7a 4a bf 3e
       -0.36605033 -1.2629629 -0.025601314 0.3736151
0002b0 8a 81 37 bf 15 0f 68 bf be 88 22 bf 35 7a 85 3e
       -0.71682036 -0.90648013 -0.634899 0.260698
0002c0 05 41 26 3f 73 b6 e5 be c7 02 8e 3e 5b eb 34 bf
       0.6494296 -0.4486576 0.27736494 -0.70671624
0002d0 f8 90 98 3e 8f 99 ae bf 5e 57 da 3d 09 18 23 3f
       0.29798102 -1.3640612 0.10661195 0.6370855
0002e0 08 d3 d5 3d c4 3e 0f be fc 17 ce be 34 4c 78 bd
       0.10440642 -0.13988787 -0.40252674 -0.060619548
0002f0 22 c2 86 3d bd b4 c7 3e 37 7a c4 3e 52 5b 19 bf
       0.06579997 0.3900508 0.38374493 -0.5990497
000300 27 23 74 be 9f 9a 7f bf 9e b5 e1 3e 0a bb 55 be
       -0.23841535 -0.9984531 0.44083875 -0.20872131
000310 4f dd b4 be 23 47 3e 3e f8 16 af 3d 1d aa 70 3e
       -0.35325095 0.18581824 0.08549303 0.23502393
000320 99 6a aa be 5d 32 cc be b3 b6 06 bf a2 32 55 be
       -0.33284453 -0.39882174 -0.52622527 -0.20820096
000330 a3 c9 bd be d4 d1 c9 3e 68 41 dd 3e 8d fd d8 be
       -0.370679 0.394179 0.43213964 -0.42380944
000340 13 0c 13 bf a2 84 e1 be 99 b9 62 3e 15 c2 ec 3e
       -0.574403 -0.44046503 0.22141112 0.46241823
000350 f2 91 b4 bf b7 09 26 3f b1 51 16 3f f8 71 24 3f
       -1.4107039 0.64858574 0.587184 0.642364
000360 ec 83 b5 be df 8b 37 bf 03 5b a7 bd 01 f3 2a 3f
       -0.3545221 -0.716978 -0.08171656 0.66777045
000370 5e 24 91 bf 95 79 0e 01 af d9 bd 3e 35 71 34 3f
       -1.1339223 2.6168512e-38 0.37080142 0.7048524
000380 24 3a 9e 3e 54 c9 04 3e e0 a0 14 bd 21 61 d2 be
       0.30903733 0.12967426 -0.036286235 -0.41089728
000390 19 5c 27 bf 6f 15 9d 3e 0c 25 91 3e 3e f4 0b bd
       -0.65374905 0.30680415 0.28348577 -0.034168474
0003a0 eb a3 68 3f 6b fd 98 3e 5d d4 44 bf 4f 37 b7 3e
       0.9087512 0.29880843 -0.7688654 0.35784385
0003b0 8f 3a 0a 3e ac 12 46 be 2b d7 2d 3e a8 d7 f7 be
       0.13498901 -0.1934306 0.16976611 -0.4840672
0003c0 39 85 2e bf 39 4a 1e 3e de 03 9d 3e ae 42 5d bf
       -0.6817203 0.15458001 0.30667013 -0.8642987
0003d0 62 99 4e bf d4 5e 74 be bc 98 89 3f 70 16 df 3e
       -0.80702794 -0.23864299 1.0749736 0.43571806
0003e0 b6 d7 4a be ae 73 17 3f d3 5b 20 bf f9 5b 8d 3d
       -0.1980885 0.5916089 -0.6264011 0.06902308
0003f0 31 46 da 3d e9 e6 df 3e 3b 96 af bd 85 5d 82 bf
       0.10657919 0.43730858 -0.08573576 -1.018479
