Matrix-Factorization-Experiments/models/mf_temporal_feat.pth (torch_old, 508750 bytes, 7 tensors)

user.weight f4 [6041, 10]
000000 e4 6c 3b 00 db 3e c8 80 86 f9 79 80 11 04 b4 00
       5.457357e-39 -1.8389648e-38 -1.1201607e-38 1.6531848e-38
000010 f7 a6 9e 00 a6 e3 06 81 3e 84 0d 00 1f d3 5e 00
       1.4569904e-38 -2.4775243e-38 1.241301e-39 8.708273e-39
000020 4e 7c 4a 81 9f 27 25 00 e9 44 5f 3e b9 9f c4 3d
       -3.7190725e-38 3.412127e-39 0.21803631 0.09600777
000030 67 78 c9 3e 5e 02 de bd 1d c5 38 3f 07 b7 2c be
       0.39349672 -0.10840295 0.7217577 -0.16866694
000040 39 61 2e bd 4a 47 e4 bd 09 09 29 3f 90 3d 1e 3f
       -0.042573188 -0.1114641 0.6602941 0.61812687
000050 c4 f3 b7 3e 49 a6 27 3e e0 66 0d 3f 65 d3 d1 bd
       0.35928166 0.16372027 0.552351 -0.102453984
000060 50 4f 9f bb ff c7 8a be b4 14 2e be 45 ab 3c bf
       -0.0048617497 -0.2710571 -0.17000085 -0.73698837
000070 5a d4 63 3e dd a2 c9 3e 59 a3 05 3f 9f 55 d9 3d
       0.22248974 0.39382067 0.52202374 0.10612034
000080 e0 c4 37 3f fb fd ad 3e 60 2e 09 bf 05 1d f6 3e
       0.7178478 0.33982834 -0.5358639 0.48069015
000090 46 e5 14 3e f3 69 f0 be 9c 5a b3 3e db 9a b1 be
       0.14540586 -0.46955833 0.35030067 -0.34688458
0000a0 7a 9d ab 3e 5c 04 01 3e 6b 01 57 3e fa 8a 1b bd
       0.33518583 0.12599319 0.20996635 -0.037974335
0000b0 65 c4 13 3e 71 2c e7 3e bc d8 88 be 5f 9e 83 3e
       0.14430387 0.45151094 -0.26727855 0.25706765
0000c0 20 5c 0f 3e d3 67 ab bd 2a b5 35 bf f6 de 42 bf
       0.13999987 -0.08369412 -0.7097956 -0.7612146
0000d0 d6 40 d9 be 17 a2 b9 3e c5 f9 c0 be 5d 3e a1 be
       -0.42432278 0.36256477 -0.3769056 -0.31492892
0000e0 86 cf be 3e 77 09 42 3f db b7 57 be ee d9 31 3d
       0.37267703 0.7579569 -0.21066229 0.043420725
0000f0 63 6c 83 3e 37 3a 1e 3e 71 16 84 3e 62 eb dd 3e
       0.2566863 0.15451895 0.2579837 0.43343645
000100 78 e4 a8 be a6 65 e3 3e 54 12 31 bf 48 e8 74 bf
       -0.32986808 0.4441349 -0.6916859 -0.95666933
000110 e5 07 33 3f ab 37 76 3d 53 c6 10 3f b0 16 79 3f
       0.6993392 0.060111683 0.5655262 0.97300243
000120 73 3b 92 be de db c7 3e a9 f8 c1 3e d3 19 81 3e
       -0.2856098 0.39034933 0.37885025 0.25215015
000130 1e de 25 3f a2 8a 5a be c0 65 95 bd 77 61 93 3e
       0.6479205 -0.21341947 -0.07294798 0.28785297
000140 5f 9c 9d 3e 0c a7 32 3c bb c5 d8 3d 82 60 8c 3d
       0.30783364 0.010904085 0.10584589 0.06854345
000150 89 36 5d 3e 6e 85 bf be 64 6d b3 3e 78 c9 e0 3d
       0.21602835 -0.37406486 0.35044396 0.10975927
000160 93 04 9f bd 76 2f 11 3f 39 ae c0 3d 67 58 95 be
       -0.07764544 0.56713045 0.0940823 -0.29169008
000170 4b 1d 40 3f 67 2b 51 bb ab 82 0c 3f ba 96 c7 be
       0.750447 -0.003191674 0.54886883 -0.38982183
000180 24 40 e7 3d 98 9b 7e be be 3e 36 be 4e cc 91 be
       0.11291531 -0.24864042 -0.17797372 -0.28476185
000190 a4 0c 89 be f9 ce 8b be 1a d8 86 be 3b 91 19 bd
       -0.26767457 -0.27306345 -0.26336747 -0.03749202
0001a0 87 3a 58 bf d1 e4 19 bd f3 24 ba be 3d 4c 0e bf
       -0.84464306 -0.037571732 -0.36356315 -0.5558508
0001b0 05 eb c3 3e 50 67 af 3e e4 3c 69 3f 0a b6 09 bf
       0.38265243 0.3425851 0.91108537 -0.53793395
0001c0 4a 9b 2c 3f d8 5c e4 3e 42 d8 e0 3d fe 8d 38 bf
       0.6742445 0.44602084 0.10978748 -0.7209166
0001d0 2f f8 dd bd 5a 2a 13 3f b7 c6 e4 be b0 ed cb 3e
       -0.10838353 0.574865 -0.44682857 0.3982978
0001e0 52 0c a9 3d 58 5a 81 3e 6a f6 f6 3c e4 7a 1a be
       0.08254303 0.2526424 0.030146796 -0.15085942
0001f0 40 99 79 3e 79 6d ea 3d 52 c5 85 3f 49 c6 ef be
       0.24374866 0.114466615 1.0450842 -0.46830967
000200 8f c1 d6 be 10 4c 7d be cf 92 4d bd cd e0 9b 3e
       -0.41944548 -0.24736047 -0.050188836 0.30444947
000210 61 af d1 3d 4d 69 f5 be 1d 73 77 be b7 03 35 3d
       0.10238529 -0.479319 -0.24165006 0.044192996
000220 3f d1 8c 3e 8a 71 c7 bd c7 c1 67 be 1a 43 e2 3e
       0.27503392 -0.09738453 -0.22632514 0.4419182
000230 6d 85 a6 3f 64 b1 e7 3e 38 de 96 3e f5 89 cf 3e
       1.3009468 0.45252526 0.29466414 0.4053494
000240 73 dc cf be 26 f5 8a 3f 06 ad 10 be 85 6b be bd
       -0.40597877 1.0856063 -0.14128503 -0.092978515
000250 a2 cf 4e bf 2d f5 54 be 7d fa 53 3f 15 8e de bd
       -0.8078557 -0.20796652 0.8280409 -0.10866944
000260 ca c2 14 3d ce 01 47 bd fb 03 de 3d 01 93 7a bd
       0.036318578 -0.048585705 0.10840603 -0.06117535
000270 63 9a 8d bd cb ad 03 bf c9 3a 3f 3e 6f 5e 88 be
       -0.069142126 -0.5143706 0.18674769 -0.26634547
000280 75 95 5b bf a8 f5 8f 3d 4f 1d e7 3e a7 fc 07 3d
       -0.8577493 0.07029277 0.45139548 0.033199932
000290 be 47 c7 3e 93 8f 22 be b2 45 07 bc f0 1e 17 bf
       0.38921922 -0.15875082 -0.008256363 -0.5903158
0002a0 dc a7 67 3e dc 09 11 3f 4f cb 95 bd 1c 02 e0 3e
       0.22622627 0.5665567 -0.07314169 0.4375161
0002b0 31 27 4b be a0 c0 a5 3e cd 37 cb bd 43 4a c9 be
       -0.19839169 0.32373524 -0.099227525 -0.3931447
0002c0 24 6d 18 bd 86 08 73 3e 14 ea 2b 3e d1 44 aa bd
       -0.03721346 0.2373372 0.16788512 -0.08313907
0002d0 1c 56 bb be 38 f2 11 3f 42 8e a2 3f c5 59 22 3f
       -0.36589134 0.5701022 1.2699664 0.6341823
0002e0 a7 17 80 be 8f 17 cc be 4c 6d a3 bd 23 60 20 3e
       -0.25018045 -0.39861724 -0.07979831 0.15661673
0002f0 fb ba ba be 66 a8 80 be 5b 8a 5f 3e ac f7 8a be
       -0.3647078 -0.25128478 0.21830122 -0.27142084
000300 72 62 a2 3c 86 3b 15 3f 0d 58 36 3e 24 99 5f be
       0.019822333 0.5829395 0.17807026 -0.21835762
000310 54 a4 64 be 90 c1 5a be 4f e6 cf be 9f 49 b1 3e
       -0.22328311 -0.213629 -0.406054 0.3462648
000320 09 e0 73 3e d0 72 65 3e 3b a1 0e be 13 bc 90 3d
       0.23815931 0.22407079 -0.13928692 0.07067122
000330 b7 c0 16 3f e0 8d 70 3d 3e a0 1e 3e 00 ac e5 bc
       0.5888781 0.058729053 0.15490815 -0.028036118
000340 bf 20 53 be 1d 0a 80 be dc 11 d9 be 77 a2 03 3f
       -0.2061796 -0.25007716 -0.42396438 0.51419777
000350 b9 b3 c7 bf e6 28 be 3f 33 1f 4a 3f 78 da b7 3b
       -1.5601722 1.4856231 0.78953856 0.0056107603
000360 f3 01 16 bf 3f d7 ee 3d 73 fc 17 bd fb 08 38 be
       -0.58596724 0.11662149 -0.03710599 -0.17972176
000370 fd 49 72 3e 4f c9 ba be fd 0c 4c 3d 06 cc 16 3f
       0.23661037 -0.3648171 0.049817074 0.58905065
000380 c6 dd b7 bc 83 49 1c bd 4c 9c f4 3e bf 4f 08 3f
       -0.022444617 -0.038156044 0.47775495 0.5324668
000390 db d2 0c bd a2 a7 98 3e 47 e7 0d 3e 07 16 6b 3d
       -0.034380775 0.29815394 0.13857757 0.057394054
0003a0 c6 6d 55 bf c6 65 e2 3d f8 de 55 3e a9 ed e9 bc
       -0.83370626 0.11054568 0.20885837 -0.028555708
0003b0 f6 dd 92 3e 3b 4b 03 be 1f 00 96 be f1 ba 51 be
       0.28684968 -0.12821667 -0.29296967 -0.20481469
0003c0 b7 89 17 bf 18 9b 9f bc 93 36 f0 3e ab 33 0b 3e
       -0.5919451 -0.019483134 0.46916637 0.13593929
0003d0 59 91 02 3f 63 49 3d be ef e8 8c be 6a c5 c9 3e
       0.5100303 -0.18485026 -0.27521464 0.39408427
0003e0 b9 2c 87 be 97 52 6c 3e 25 9d bd 3e 5a a0 f9 3e
       -0.26401308 0.2307838 0.37033954 0.4875515
0003f0 b1 95 5c bf 14 4c 78 3f 40 05 a7 be a4 ec e4 be
       -0.8616591 0.96991086 -0.32621193 -0.44711792

item.weight f4 [3953, 10]
000000 20 2b 37 81 ec 8f 1f 80 72 a2 cf 00 db e0 59 82
       -3.3642732e-38 -2.89853e-39 1.9068222e-38 -1.6007172e-37
000010 a6 64 4f 80 2c cc 29 80 65 2e 4c 00 ff 89 18 01
       -7.29111e-39 -3.838498e-39 6.996141e-39 2.8016998e-38
000020 78 72 a8 80 81 27 79 00 ba d6 4a bf 87 8b 83 3e
       -1.5469427e-38 1.1126266e-38 -0.79233897 0.25692388
000030 5a a3 45 3e 6a cb 81 be cf 54 1e 3e 69 0e fa be
       0.19300595 -0.25350505 0.1546204 -0.4883912
000040 f7 a3 79 be fe 68 95 be 33 2a 6c be 8d 8b e4 3d
       -0.24378954 -0.29181665 -0.23062973 0.1115943
000050 d2 0c 61 be d2 c4 c6 bc c9 a7 b3 bc 80 17 e2 3d
       -0.21977547 -0.024263773 -0.021930592 0.110396385
000060 22 54 c2 be 55 a9 ae be 77 a6 b1 3a 8e fa 0c bf
       -0.37954813 -0.34113565 0.0013553639 -0.55069816
000070 87 33 c2 3d 49 2f 2e be 8e a6 8c 3e 3f 0d e0 be
       0.09482484 -0.17010225 0.2747082 -0.43760106
000080 5d c6 e8 3e 90 08 e1 3e 0d f1 0c 3e 0b 08 b6 bd
       0.4546384 0.43951845 0.13763829 -0.08888253
000090 ed 54 80 3e c3 8f 26 bf 8a 71 91 be 2c 52 5d 3f
       0.25064793 -0.6506311 -0.28406936 0.8645351
0000a0 dd d4 a9 be af 62 8f bd 8e 51 0f 3f b7 81 2d be
       -0.33170214 -0.07001244 0.5598382 -0.16944014
0000b0 c6 9c 6f be e7 75 53 be 09 32 be bd eb 02 2c be
       -0.23399648 -0.20650445 -0.09286887 -0.16797988
0000c0 41 07 5b 3f a9 56 e1 3c b7 a0 e4 bd 5c ef 14 bf
       0.85557944 0.027507143 -0.111634664 -0.58177733
0000d0 23 be 00 3f b5 5d d0 bd 74 c2 1a 3d 17 c5 6c bd
       0.50290126 -0.10174123 0.0377831 -0.057805147
0000e0 95 bb 38 3e 5b 41 67 bf a9 7c 4a 3e 35 e8 a9 3e
       0.18040307 -0.903341 0.19774117 0.33184972
0000f0 55 14 9a 3e 8d cc 13 3e 23 a1 09 3e 63 43 ca be
       0.30093637 0.14433499 0.13440375 -0.39504537
000100 61 17 af 3e ee 05 57 bd da fe cb 3e d4 a1 df 3d
       0.34197524 -0.05249589 0.39842874 0.10919538
000110 c3 39 c3 bd 83 08 01 be 8f bf 6d bd 9f 6c a6 be
       -0.095325015 -0.12600903 -0.058044013 -0.32504746
000120 e4 3f 1b 3f 9f 52 6d 3c b5 1e 4a be 84 bf 0e 3c
       0.60644364 0.01448503 -0.19738276 0.008712653
000130 64 13 6b be f2 f1 34 bf 12 a0 18 be 34 97 95 bd
       -0.22956616 -0.7068168 -0.14904812 -0.0730423
000140 ab 95 61 be 65 cc 6c bd dc 47 d6 3d 06 b0 96 be
       -0.2202975 -0.057812113 0.10462925 -0.2943117
000150 72 4d 02 3d bc 44 0a 3e 8d 18 85 3f f3 82 eb be
       0.03181214 0.13502783 1.0398117 -0.45998344
000160 84 8b fa 3e 06 59 24 3f c4 f3 4d 3e 8a 97 47 3e
       0.48934567 0.6419834 0.2011252 0.19491401
000170 3d a8 59 bf 0f 4e f1 bd 63 05 da 3d e7 b3 f5 be
       -0.85022336 -0.117824666 0.10645559 -0.47988817
000180 9b 21 41 3f 7f c7 2a bf 89 fe 56 3f b1 ff fc 3e
       0.754419 -0.66710657 0.8398214 0.49413827
000190 9d ea 80 3e cc d7 d4 3e f7 05 17 be b1 28 68 3e
       0.25178996 0.4157089 -0.14748369 0.22671773
0001a0 7d 76 14 be b5 d6 d0 be 50 cb c8 bb 0b 87 ca be
       -0.14498325 -0.40788808 -0.0061277524 -0.39556155
0001b0 0a a9 08 bf e4 a9 12 3e 53 f6 85 3d 44 ff d6 3e
       -0.53382933 0.1432262 0.06541123 0.41991627
0001c0 00 9f 9a 3e 1f 00 ae 3c 6e c6 6f bc 28 f8 e1 be
       0.30199432 0.021240292 -0.014634712 -0.4413464
0001d0 2f 2d b2 be 2d 16 25 bf 2c b1 61 3e 66 b9 00 bc
       -0.34800097 -0.6448696 0.22040242 -0.007856702
0001e0 55 11 b2 3d 61 aa 57 3e a6 61 60 bf f8 1f ca 3e
       0.08694712 0.21061088 -0.87649 0.39477515
0001f0 96 aa 1b bf c8 82 14 3f cb c6 21 be ff 4b 29 bf
       -0.6080717 0.58012056 -0.1579849 -0.66131586
000200 97 18 f0 be 9d ef b2 3e e3 9e 84 be 05 33 8f bd
       -0.4689376 0.34948435 -0.2590247 -0.06992153
000210 95 09 06 3f 44 b1 ad be c3 a0 80 3e e0 60 a5 3e
       0.5235837 -0.33924305 0.2512265 0.32300472
000220 3b fe 22 3e ad 1e 18 bf 1c 96 fb 3e bb 12 22 be
       0.15917294 -0.5942181 0.49137962 -0.15827458
000230 83 d9 8c 3d 24 e5 7d be 07 05 9a 3e 58 62 27 bf
       0.068774246 -0.24794441 0.3008196 -0.65384436
000240 d9 d7 17 3e 08 ba 03 3f e6 06 3f bf ee 50 e2 3e
       0.14828433 0.51455736 -0.746199 0.4420237
000250 2d 21 01 bd de d4 42 be 18 cd 1d 3e e0 8c 92 bd
       -0.03152578 -0.19026515 0.15410268 -0.07155776
000260 47 35 25 bf 05 9d da 3e ee 4e 46 bf 50 cb 89 3e
       -0.6453442 0.4269792 -0.7746419 0.26912928
000270 67 2f 43 be 84 4a 3c bf 17 fd 0c 3f b3 f7 d0 be
       -0.19061051 -0.735512 0.55073684 -0.4081398
000280 dc 3d 2a 3f 1a 14 3c bd c1 a7 ba 3d b3 1e c7 bd
       0.6650064 -0.045917608 0.09114028 -0.09722652
000290 61 6f 18 3f b0 5a 6b be 2a 4a 17 3e 49 53 04 3e
       0.5954495 -0.22983813 0.14774385 0.12922396
0002a0 0a 57 86 be 22 56 78 be 65 6f 7c bf e3 02 b5 be
       -0.2623828 -0.24251607 -0.98607475 -0.35353765
0002b0 24 f6 c8 3e 7d 06 35 be e0 3f e8 bd 9b b6 25 be
       0.3925029 -0.17678256 -0.11340308 -0.1618294
0002c0 01 19 9a be ba 42 ec 3c 1c dc 01 bd b1 7a 41 be
       -0.300972 0.028840411 -0.031704053 -0.1889446
0002d0 99 e6 38 3f cd 1d cd 3e ef 75 db 3c d6 c7 03 3f
       0.72226864 0.400618 0.026789634 0.514768
0002e0 e1 93 f9 be 41 ac 24 bf 65 fd 26 3f 82 1d b8 3c
       -0.48745635 -0.6432534 0.652304 0.022475008
0002f0 c0 c3 8c be fa 90 b8 be 6e 79 58 3e 49 20 0e bf
       -0.27493095 -0.36048108 0.21140072 -0.55518013
000300 2a 56 a0 3d f4 f3 41 3e 8f ea 55 3f 12 0a 14 bf
       0.078289345 0.18940717 0.83561033 -0.57827866
000310 3e e6 ab 3e 74 40 0f bf cb bc 44 bf cf 20 00 3f
       0.33574098 -0.5595772 -0.76850575 0.5005006
000320 d9 71 29 3f 43 fb b5 bd d6 69 01 be 64 e4 4d be
       0.6618934 -0.08885815 -0.1263803 -0.20106655
000330 cf 59 f5 3d e4 b9 18 be 83 f0 89 bd a6 5c 1d bf
       0.1198002 -0.14914662 -0.06735327 -0.61469495
000340 c3 0d ae 3e bf dd 76 be 61 41 a0 bc c9 e6 cb 3e
       0.33994874 -0.24108027 -0.019562425 0.39824513
000350 d6 f0 21 bd 4e c5 cd bd e2 e0 28 3d 51 b1 11 bf
       -0.03953632 -0.100473985 0.04123009 -0.5691119
000360 29 a3 aa be e0 fd 90 3e be ac b1 bc e5 4a a5 be
       -0.33327606 0.2831869 -0.021688815 -0.32283702
000370 2a 3f e2 3e 9f 45 e6 bc d2 1b f3 bb cd 11 19 bf
       0.44188815 -0.02810937 -0.007419088 -0.59792787
000380 a6 d2 e6 3d 56 67 0f bf 4a d8 1a bd 8b 6f f7 be
       0.11270647 -0.56017053 -0.037803926 -0.48327288
000390 15 a1 55 3e 29 30 3c 3e 1e 8c cf 3e 73 aa 04 bd
       0.20862229 0.18377747 0.40536588 -0.032389116
0003a0 bc d7 b9 be ef 5f ac be 55 69 bd bd 4a b9 04 be
       -0.36297405 -0.33666942 -0.09248606 -0.12961307
0003b0 61 b5 1f 3f 17 17 08 bf 10 19 eb 3e 4c 06 1d 3f
       0.6238614 -0.5316023 0.4591756 0.61337733
0003c0 23 97 af 3e bc ca 1a bf ce 39 b1 3e f5 ef b0 be
       0.34294996 -0.604656 0.34614414 -0.34558073
0003d0 b7 6a b0 be 06 df 70 bd 0d 43 a7 3e 34 e3 a5 be
       -0.34456417 -0.05880644 0.32668343 -0.32399905
0003e0 ef e4 c0 3e 22 6c ae bd 8e 39 b5 3e 3e f9 7a be
       0.37674662 -0.085167184 0.35395473 -0.24509141
0003f0 2f b1 2b 3e 4b 6a 35 bf e2 7f d7 3e e9 0f 45 be
       0.16766809 -0.70865315 0.42089754 -0.1924435

occu.weight f4 [21, 10]
000000 f1 de a6 3d 41 c8 79 bc 72 dd 96 bc dc 1c cf 3d
       0.081479914 -0.015245498 -0.01841614 0.10112926
000010 ff ec b1 bd 9d f4 1a 3e 2b a8 14 3d 85 4c 7a 3d
       -0.086877815 0.15132375 0.03629319 0.06110813
000020 a0 4d 94 3d 34 57 78 3d c0 df c3 3d c2 85 d6 bd
       0.07241368 0.06063004 0.09564161 -0.10474731
000030 fc 9c af bd 43 5f f5 3d 07 19 e3 bd da 7b e7 3d
       -0.08574864 0.1198106 -0.11088758 0.1130292
000040 1a a0 45 3d 24 23 69 bc 16 57 04 3e 80 d7 17 3d
       0.048248388 -0.01422957 0.12923846 0.03707075
000050 bf 44 da 3c 86 aa 89 bd a9 c8 d0 bd 45 a7 d6 3d
       0.026644109 -0.06721978 -0.10194523 0.10481123
000060 5a 27 cb bd 83 21 1f 3e 97 ec b7 3c 21 62 50 bd
       -0.09919615 0.15540127 0.022451682 -0.050874833
000070 09 25 d2 3d 2f 39 c7 3d a9 97 54 3d d0 a3 77 bd
       0.1026097 0.09727704 0.051902447 -0.06045896
000080 42 e9 08 bc 60 33 89 3d 33 2c 36 be c1 1e 3c 3e
       -0.008356394 0.06699252 -0.17790298 0.18371107
000090 9b 4f 13 3e 63 a1 23 3c 25 20 3c 3e 19 c7 14 bc
       0.14385836 0.009987208 0.18371637 -0.009080672
0000a0 22 80 6c bc 3a 97 af bc d8 02 eb bc 94 70 c6 3d
       -0.014434846 -0.021434415 -0.02868788 0.09689441
0000b0 62 d3 c4 bd 86 81 82 3e 9f 18 60 3d ce 9b 9a 3d
       -0.096106306 0.25489444 0.05471098 0.07549249
0000c0 4b f9 d9 3d bf fd 99 3d 7c 79 8c bb 10 e6 db bd
       0.10643252 0.07519101 -0.004286943 -0.1073724
0000d0 fe 66 39 bd 05 ea 33 3d f3 eb c1 bd a5 0c 22 3e
       -0.045264237 0.04392435 -0.09468832 0.15825136
0000e0 c2 d6 12 3d 4c f8 f5 3d d7 19 f8 3d 9b 06 23 3d
       0.03584934 0.120102495 0.121143036 0.03980122
0000f0 a3 14 81 bc 77 52 dd bd 54 70 6b bd 2b cf a6 3d
       -0.01575691 -0.108067445 -0.05748017 0.08144983
000100 e3 fd 27 bd 55 5b 4d 3e 95 2b 15 3d 96 66 6a 3c
       -0.04101361 0.20054372 0.036418516 0.014306685
000110 48 7c af 3d ed c3 50 3d 8c 5d 57 bb 04 31 1d be
       0.08568627 0.0509681 -0.0032862155 -0.15350729
000120 f1 b4 6d bd 93 f3 0d 3e 5b 0b 09 be 84 07 83 3e
       -0.058033887 0.13862447 -0.13383238 0.2559167
000130 7d 12 2f 3d a3 34 f1 3b b6 a6 15 3e 9c d7 83 3d
       0.04274224 0.007361011 0.14614376 0.064376086
000140 0b 2b 84 3c 42 b4 e9 bd c1 7b 20 3d 67 9b d9 3c
       0.016133806 -0.114113346 0.03918052 0.02656336
000150 f2 b9 9f 3a 65 05 49 3e 9c 67 45 3d ca 81 db 3d
       0.0012186153 0.19630964 0.048194513 0.10718115
000160 54 ab 37 3d 96 06 88 3d 0c ba 21 3d f1 9c 71 bd
       0.044841126 0.06641881 0.03948407 -0.05898756
000170 97 4f 17 be ee c2 70 3d d0 1b 99 bd 37 87 9a 3e
       -0.14776455 0.05877965 -0.07476008 0.30181286
000180 32 76 0b 3e 8f d5 56 3d 6e c9 cb 3d 17 c3 37 bc
       0.13619307 0.05244976 0.09950529 -0.011215947
000190 a6 bf 8c 3d 11 96 ca bb fd f0 45 3c 0d 2b 9a 3d
       0.068724915 -0.00618244 0.012081382 0.075277425
0001a0 fe d6 82 bd 2d b2 96 3e 2c 02 c8 3c b8 c5 1f 3e
       -0.06388663 0.29432812 0.024415098 0.15602767
0001b0 73 94 28 3e 60 33 0a 3b a9 71 df 3d 41 45 36 bd
       0.16462879 0.002108775 0.10910351 -0.04449964
0001c0 38 4c ff bc 34 38 cb 3d 0b 31 57 be 6f 81 df 3d
       -0.031164274 0.09922829 -0.21014802 0.109133594
0001d0 ff b5 3a 3c 01 90 85 bd 2d 5a e2 3d 03 10 16 3b
       0.01139593 -0.06521607 0.11052356 0.0022897727
0001e0 92 e2 b3 bc 0a cc 94 bd 83 8b 50 bd 4c 26 c8 3c
       -0.021958623 -0.0726548 -0.0509143 0.024432324
0001f0 a9 fb f0 bd 96 72 88 3e 37 49 64 3d e0 a3 df 3c
       -0.1176675 0.26649922 0.055733886 0.027299821
000200 c9 43 34 3e 12 27 76 3d 58 f7 0f 3e 16 cd 13 bd
       0.17603983 0.060095854 0.14059198 -0.036084257
000210 18 b1 e7 bd 48 2e 35 3e 85 a6 bc bd 5d 05 bf 3d
       -0.11313075 0.17693436 -0.092114486 0.09327195
000220 2e e3 3f 3d 7c 86 e2 3b 98 a3 0d 3e df c7 13 3e
       0.046847515 0.0069130044 0.13831937 0.14431714
000230 79 be 84 3b fb 12 15 bd 65 b1 13 bd 96 06 0f 3e
       0.0040510264 -0.036395054 -0.03605785 0.13967356
000240 48 50 06 be e7 04 5e 3e 07 2c 75 3d 5b b5 d5 3c
       -0.13116562 0.21681558 0.05985644 0.026087454
000250 57 7a ed 3d 90 73 3f 3d ba 15 9a 3d 40 74 80 bd
       0.115956 0.04674107 0.07523675 -0.06272173
000260 aa 0e 70 bd d9 bd 78 3d 49 d8 1c be 81 0b 77 3e
       -0.058607735 0.060727928 -0.15316881 0.24125482
000270 ad 1c f7 3d 3f 91 a1 3c 8b 4f 02 3e a0 94 1c 3d
       0.12066016 0.019722579 0.12725656 0.038227677
000280 d8 86 42 bd cb 55 b1 bd bd 4f 18 bc 28 60 b5 3d
       -0.04749188 -0.08658942 -0.009296355 0.08856231
000290 f9 7e 30 be 2e 67 d8 3d 10 a3 5d 3c 79 cc 46 3d
       -0.17235936 0.10566555 0.013527647 0.048534844
0002a0 34 82 11 3e d6 a8 50 3d b3 34 85 ba 37 8d 2f be
       0.14209825 0.050942264 -0.00101628 -0.17143713
0002b0 fe c0 44 bd 22 93 83 3d 4b d9 f9 bd 71 de 57 3e
       -0.048035614 0.06424548 -0.121996485 0.21080948
0002c0 89 ac 13 3e c8 a3 75 3d e5 e1 27 3e b5 ff ee 3d
       0.14421286 0.059970647 0.16394766 0.11669866
0002d0 5b bf 84 3c d5 d3 cc bd 07 79 c4 bc 96 d2 fe 3d
       0.016204527 -0.10001341 -0.023983492 0.1244251
0002e0 36 02 03 be f1 b5 f3 3d a7 0d ca 3a ae 43 09 3e
       -0.12793812 0.11899937 0.0015415446 0.13404724
0002f0 d6 6d 04 3d bf 45 2e bd 2a 59 fd bc 4d 04 3e bd
       0.03233131 -0.042546984 -0.030926306 -0.04639082
000300 cb a6 77 bd 4f 78 ae 3d 7c a9 f8 bc 00 9c 0a 3e
       -0.0604618 0.08519041 -0.030354254 0.13536072
000310 40 5c 8e 3d 54 96 46 bc 49 73 df 3d 6b 2f af 3d
       0.06951189 -0.012120802 0.10910661 0.08553966
000320 9a fc 82 bb cd 90 15 bd 4a d7 2e bd 71 c4 c3 3d
       -0.0039973976 -0.036515046 -0.042685784 0.095589526
000330 cc 22 e3 bd e7 69 18 3e 14 d4 8f 3d 54 bc ae bd
       -0.11090621 0.14884149 0.070228726 -0.085320145
000340 99 a9 1f 3e 4a 5b a9 3c
       0.1559204 0.020673413

user_temp.weight f4 [6041, 2]
000000 ae 70 72 00 5e 16 16 80 80 ca 00 3d d0 46 85 be
       1.0509668e-38 -2.028405e-39 0.03144312 -0.26030588
000010 2e 91 44 3e 1f 95 b3 3b 65 b2 e7 3e 05 13 03 3e
       0.19196007 0.005480423 0.45253292 0.12800224
000020 7a cd f4 3e 5f 64 bb 3e 86 1c dd 3e 4a 7e 8d 3e
       0.47813016 0.36600015 0.43185824 0.27635413
000030 90 89 75 be 87 29 5a bd b3 5f 4e 3f 49 43 88 be
       -0.23978257 -0.05326226 0.80614775 -0.26613835
000040 34 b6 12 3c 41 88 b8 be 6d 8e 54 be 11 93 2e 3e
       0.008954573 -0.36041453 -0.20757456 0.17048289
000050 d2 f9 c7 be 43 a8 1d 3e b8 2a b7 bb 1d 6d 66 bf
       -0.39057785 0.15396218 -0.0055898093 -0.90010244
000060 7b 64 82 3f bf 79 8c be 94 2f 9f 3e 20 98 59 be
       1.0186914 -0.27436635 0.31090987 -0.21249437
000070 72 4d d0 3e 16 a2 57 3e c1 ac d0 bd f5 17 b4 bd
       0.40684086 0.21057925 -0.101892 -0.08793632
000080 67 a6 60 bf 6f c5 dc 3d 1d cc 65 be 4f 20 5f be
       -0.8775391 0.10779845 -0.22441144 -0.21789669
000090 79 ee a3 3e 0c 22 8a 3e 27 65 46 3e 99 54 07 3f
       0.32017878 0.269791 0.19374524 0.5286346
0000a0 17 e5 fb be 63 63 d1 3e 01 69 03 3e b3 50 86 be
       -0.4919822 0.4089614 0.12833025 -0.26233444
0000b0 fb 97 d9 3e 4f e3 cd bd da 2a 19 bf 12 39 b5 bd
       0.42498764 -0.10053121 -0.5983101 -0.08848776
0000c0 7e 05 53 bd 81 d8 3e 3f 2a f5 8c 3e ac 73 51 bf
       -0.05151891 0.7454911 0.27530795 -0.81817126
0000d0 b9 2c 34 be b7 0b b1 bd 54 78 f1 be 6c 27 3e bd
       -0.17595185 -0.086448126 -0.47162116 -0.046424314
0000e0 4c 74 c2 3e 6d 98 18 3d bf 87 61 be f3 8b d6 be
       0.37979352 0.03725474 -0.2202444 -0.41903648
0000f0 bb 60 4e be 72 34 a7 bc 85 55 38 3f d2 fe 93 be
       -0.20154087 -0.02041075 0.7200549 -0.2890535
000100 b1 91 24 3f 53 d7 9c be b0 db e8 3e 85 d6 03 3f
       0.6428481 -0.3063303 0.45480108 0.51499206
000110 c6 e2 23 ba 72 76 e1 be e9 ea b4 3e ca a8 1a 3e
       -0.00062517484 -0.4403568 0.35335472 0.1510345
000120 33 d2 92 3e b1 e9 11 3b 30 7a 52 3e 7b f5 a0 be
       0.28675994 0.0022264535 0.20554423 -0.31437287
000130 b6 3d 11 3f ec d8 37 bd 49 b8 7c 3d ac 46 9a bc
       0.5673479 -0.044884607 0.061699186 -0.018832527
000140 14 5e 93 3b 85 4e 5a 3f c1 4e cc 3e 39 ed 83 3f
       0.004497299 0.8527606 0.39903834 1.030677
000150 9f 56 1d 3f d3 be d6 3e 1d 8c 1f 3e 9b 1a 51 be
       0.614603 0.41942462 0.15580793 -0.20420305
000160 ba cb 46 3f 74 5e a8 bc d6 01 34 3f b2 c4 18 be
       0.7765461 -0.020552851 0.703153 -0.14918783
000170 fc 2e b5 3e 5b 7d ca be b7 99 37 3f c7 ce 7f be
       0.3538741 -0.39548764 0.71718925 -0.24981223
000180 c4 ef 0d be 34 ac 69 bd 1e 58 f4 bd a0 52 40 3c
       -0.13860995 -0.05704899 -0.119308695 0.011738449
000190 78 65 9b bf 1c 6d 73 3d 47 94 42 be 87 b2 47 3e
       -1.2140341 0.059430227 -0.19001876 0.19501697
0001a0 8f 2c 88 3f 61 ac f9 be 12 02 6d 3e ba a1 9d 3d
       1.0638598 -0.48764327 0.23145321 0.076968625
0001b0 3a f5 2c 3f 32 ec 5c 3f 7c 5c ea 3e 54 30 97 3e
       0.67561686 0.86297905 0.45773685 0.2952906
0001c0 8c 0b 34 3e 51 f9 f5 3d 77 f4 80 3c c8 a0 39 bc
       0.1758253 0.12010444 0.01574157 -0.011329837
0001d0 fc 2b b2 3c c6 49 17 3d e6 d9 b5 bd 99 50 10 3d
       0.021749489 0.03693559 -0.088794515 0.035233114
0001e0 a4 aa 39 3f 64 b2 86 bf d1 2e ff bd 57 bf a2 be
       0.72526 -1.052319 -0.124601014 -0.31786606
0001f0 13 d1 3e bd 2f cf b0 3c e6 14 3f bd 3c 6d 0a be
       -0.046586107 0.021583168 -0.04665079 -0.13518232
000200 95 d1 e2 3e 16 1a d6 3d bb 36 03 3f 93 a6 ca be
       0.44300523 0.10454194 0.5125539 -0.3958021
000210 f2 32 81 bf 36 08 1c 3f 96 b9 a8 3e 2d f8 b6 3e
       -1.0093672 0.6095003 0.3295409 0.35736218
000220 3b 6e 64 bf 23 41 ef 3d fc 7b 5c 3e f1 8e 15 bd
       -0.892307 0.11682346 0.21531671 -0.036513273
000230 23 35 22 3f 94 93 18 3f 07 5a 35 3d 7f 93 67 3e
       0.6336233 0.59600186 0.04427531 0.22614859
000240 8b ca 6c bf e7 3d 49 be 3e ba 91 be 3e 2e bb 3d
       -0.92496556 -0.1965252 -0.28462404 0.09139679
000250 ef f1 9c be 05 19 99 bc d1 2c b5 be 1a f4 ec 3e
       -0.3065333 -0.018688688 -0.35385755 0.46279985
000260 f7 e1 76 3e 75 ce d9 bd 0a f0 72 be 89 b1 20 bc
       0.24109636 -0.10635082 -0.2372438 -0.009807953
000270 dd 35 75 be 12 30 d8 3d d6 30 84 be bb a4 76 3f
       -0.23946328 0.10556044 -0.2581851 0.9634511
000280 30 92 d5 be e9 d0 03 3f 6c 96 e2 bd 45 28 b8 be
       -0.41713095 0.51490647 -0.11063847 -0.35968223
000290 a2 c9 30 3f 0e 05 11 3e 06 d8 00 3f fe 23 5a 3c
       0.6905767 0.14162084 0.50329626 0.013314245
0002a0 7e 64 f7 3e 27 c4 91 bf 70 f1 81 3e 08 54 d2 3f
       0.48318857 -1.1387986 0.25379515 1.6431894
0002b0 16 3e 2b 3f 7c a3 4c 3f 7e 45 96 3f f4 90 95 be
       0.6689161 0.7993696 1.1739957 -0.29212153
0002c0 17 5d 1d be 8c 28 14 3f d5 66 af 3e c3 72 e1 be
       -0.15367542 0.5787437 0.34258142 -0.4403287
0002d0 e9 c5 11 3e 9c b4 e4 ba 2a 05 4f 3e 41 9b 33 3e
       0.14235653 -0.0017448845 0.20216814 0.17539693
0002e0 b8 4b 4f 3e 19 e0 7a bc b7 f0 36 bd 79 7a 84 be
       0.20243728 -0.015312218 -0.044663157 -0.2587469
0002f0 1b ae 06 3e 4a f0 b3 be e9 37 a4 be af 18 37 3e
       0.13152353 -0.35144264 -0.32073906 0.1788051
000300 04 70 95 3e 8c d6 33 3f 59 44 19 bf 13 74 0f 3d
       0.29187024 0.7024925 -0.59869915 0.035022806
000310 2d 44 3b 3f 47 4b 02 3f 57 92 8e 3d 73 d6 6b bf
       0.73150903 0.50896114 0.06961506 -0.921241
000320 a8 9c 0d bf 41 11 b2 3d 09 69 37 3e ca 75 d8 3e
       -0.55317163 0.08694697 0.17911161 0.42277366
000330 19 d7 8a bf 3c ed 72 bf e2 bf c2 3e 62 47 14 3d
       -1.0846893 -0.9489324 0.3803702 0.03620089
000340 f3 dd 86 3e f0 f3 60 3e 53 98 d5 be d1 8b e8 be
       0.2634121 0.21968055 -0.41717777 -0.4541917
000350 f7 65 ee be e3 a6 c0 3e a8 64 c4 be 7b 11 77 3e
       -0.46562168 0.37627324 -0.38358045 0.24127762
000360 c7 b0 b5 be 97 97 1c 3e 5d 19 98 3e dc ea e2 3e
       -0.35486433 0.15292202 0.2970685 0.44319808
000370 64 4d c9 bd d4 3e c5 be d5 9d 45 bf d8 1f 70 3d
       -0.09829214 -0.38524497 -0.7719396 0.05862412
000380 f3 4b 7e 3f 21 ff 15 3e e0 c6 7a 3e 2c 49 b8 3e
       0.9933464 0.14648105 0.24489927 0.35993326
000390 99 6d a0 bd 63 3e 7b 3f 14 ac f1 be 3f 3f fd be
       -0.07833404 0.9814207 -0.47201598 -0.49462315
0003a0 1b 7f 24 bf 15 ff fb be a8 1a 60 3f 63 b3 a0 3d
       -0.6425645 -0.4921805 0.87540674 0.07846715
0003b0 ec 7f 18 3f b7 7e ae be 82 f8 e0 3e 9e c7 1d bf
       0.59570193 -0.3408105 0.43939596 -0.61632717
0003c0 2b b5 ad bd d4 94 01 bf 3c a1 9b 3f c1 a8 28 3f
       -0.08481821 -0.5061772 1.215858 0.658825
0003d0 3c 0d 06 3e 47 98 5d be 2e c2 25 bc af 74 cf 3e
       0.13090986 -0.2164012 -0.010117097 0.4051871
0003e0 b3 a1 98 3e 64 3f ae bd 10 17 53 be 5c 24 99 bd
       0.29810867 -0.085081846 -0.20614266 -0.07477638
0003f0 d9 7f 80 bf 3d 05 e9 3e 26 7b 30 3f 69 b4 e2 3d
       -1.0039016 0.4551181 0.6893791 0.11069567

temp.weight f4 [2315, 2]
000000 4a e1 e9 bd 0c 60 f0 bd 4d fe 03 bf 18 65 05 bf
       -0.114199236 -0.117370695 -0.5155991 -0.5210738
000010 32 75 bb be 61 e7 2f bf 4b bf ba be ab a5 d1 be
       -0.3661285 -0.6871243 -0.3647407 -0.40946707
000020 0c d0 ea be 60 97 b7 be 96 87 a7 be 96 ea b0 be
       -0.45861852 -0.35857677 -0.3272063 -0.34553975
000030 e5 e5 d7 bc 38 dc 22 be 43 a2 49 be 39 f9 05 be
       -0.02635474 -0.1590432 -0.19690804 -0.13083352
000040 3a e8 a2 be 3e 62 3b 3e 1a 3a ef bd 2f 16 55 3e
       -0.318178 0.18299195 -0.11681004 0.20809244
000050 71 08 8a 3e ea 36 9f be 9d 66 2a 3e 17 d0 73 be
       0.26959565 -0.31096584 0.16640706 -0.23809849
000060 f5 fc f6 3d b6 f5 0d be 4d a3 a0 3e ae 0c 48 be
       0.120599665 -0.13863263 0.3137459 -0.19536087
000070 82 db aa 3e 15 4e ff be 62 f4 a3 3e ff 10 8a be
       0.33370596 -0.4986426 0.32022387 -0.26966092
000080 b9 06 d9 3e 22 f7 a1 be 82 d1 b4 3e 7a b6 9e be
       0.4238794 -0.3163386 0.35316092 -0.30998594
000090 d9 54 75 3e 0e 35 fe bd 9b 95 9e 3e 11 01 41 bd
       0.23958148 -0.12412463 0.30973515 -0.047120158
0000a0 0c 34 eb bd 67 d9 59 3e 6c a9 12 3e 65 44 3c bd
       -0.114845365 0.21274339 0.14322442 -0.045963664
0000b0 0e 86 a1 3d 84 80 8c bd 77 b4 3e 3d be 52 aa 3e
       0.07886897 -0.0686045 0.046558823 0.33266252
0000c0 6b 72 9c 3e ac 6b d2 bc 6a e9 ee 3d 6f 68 0b 3e
       0.30556044 -0.025686108 0.11665614 0.13614057
0000d0 50 b3 a5 3e b1 85 84 be db b2 cf 3e e2 85 d9 bd
       0.32363367 -0.25883248 0.40566143 -0.10621239
0000e0 c7 aa 96 3e 06 de 53 be c8 e4 90 3e a1 02 3c be
       0.29427168 -0.20690164 0.28299546 -0.18360378
0000f0 f1 b9 f9 3d e5 39 6a 3e d2 a9 0e 3d de d0 49 3e
       0.12193669 0.22873648 0.034829922 0.19708583
000100 59 58 1e bc 5c 56 63 3e c4 00 8f 3d 86 bd 9f 3e
       -0.009664618 0.22200912 0.06982568 0.31199282
000110 1a 8f e6 bb d3 eb 7a 3d 89 9c 7e 3d 39 91 54 3e
       -0.007036102 0.061260056 0.062161002 0.20758523
000120 4c e6 c7 3d af 02 57 3e 56 57 b2 3e ca 55 df 3d
       0.097607225 0.20997117 0.34832257 0.10905035
000130 f6 dd 51 3e e0 2e 83 3b 39 91 dc bd c1 67 c6 3d
       0.20494828 0.0040033907 -0.107698865 0.09687758
000140 fc fd 01 3e 8f c0 cd 3d 3e 55 39 3e 2a 04 b1 3d
       0.12694544 0.10046493 0.18098924 0.08643372
000150 da 57 14 3e b6 16 54 3d 02 92 d8 3c 78 a6 23 3e
       0.14486638 0.05177947 0.02643681 0.15981472
000160 f2 56 5c 3e 2f 6c 8b 3d f7 82 1e 3e 28 10 46 3d
       0.21517542 0.06807744 0.15479647 0.04835525
000170 b7 ab 6b 3e 3b f6 2d 3d 0e 53 7a 3e 12 64 24 3d
       0.23014723 0.04247115 0.24445745 0.040134497
000180 b1 87 3c 3d 45 80 34 3e 0f 7a f5 3e f4 00 ab 3c
       0.046027843 0.17627056 0.47944686 0.020874478
000190 e7 3f dc 3d 8d 18 32 3e d7 6c aa 3e f5 72 9c bd
       0.10754376 0.17392178 0.33286163 -0.07639114
0001a0 7b 18 cc bd a9 d0 c4 3d b2 d3 3c 3e b4 51 cc bb
       -0.09965607 0.09610111 0.1844013 -0.0062353257
0001b0 95 01 0b 3e 6a 7d 50 3d 72 a2 8e 3e 8f 00 8d 3e
       0.13574822 0.050900854 0.2785831 0.2753949
0001c0 84 41 be 3e 8e b0 88 bc b2 a8 8b 3e 03 82 cf 3d
       0.3715936 -0.01668575 0.27277142 0.1013222
0001d0 74 c2 7c 3e bc 69 38 3e 59 4a 05 3e 33 85 54 3e
       0.24683553 0.18009084 0.13016643 0.20753936
0001e0 d7 b3 8f 3d 3b 4d d3 3e ef 28 e3 3e dd a0 a6 3d
       0.070167236 0.4126986 0.44367167 0.08136151
0001f0 af 18 4b 3e 24 bd 58 3e 79 ac 8e 3e bd f0 0f 3e
       0.19833635 0.21165901 0.2786596 0.14056678
000200 d8 b0 c5 3e d5 bc cb 3d b0 d9 7c 3e f6 41 8c 3e
       0.38611484 0.09948126 0.24692416 0.27394074
000210 03 df cd 3e 17 94 ff bc ef c1 34 3e a3 e5 76 3e
       0.40209207 -0.031198544 0.17652105 0.24111037
000220 d0 ad 09 bd be 22 55 3e b6 da b3 bd d1 92 6e 3e
       -0.033613026 0.20814034 -0.0878195 0.23298194
000230 31 d6 23 3d 1b b3 90 3e e8 48 dd 3d 99 7f 82 3e
       0.03999919 0.28261647 0.108049214 0.25487974
000240 79 eb 41 3e 38 e4 64 3e 89 9c 04 3e 85 08 a3 3e
       0.18937482 0.22352684 0.12950338 0.31842437
000250 b8 49 92 3c 74 dc 0b 3e 91 64 9d 3c a3 ed 29 3e
       0.017857417 0.13658315 0.019212993 0.16594557
000260 8b ab 68 3e 07 cf de 3e 6e 2e 21 bd 31 b9 40 3e
       0.22721688 0.43517324 -0.03935092 0.18820645
000270 6d b2 01 3e 2a b2 ed 3e a5 23 f2 bc 39 32 c0 3e
       0.1266572 0.4642499 -0.029558012 0.37538317
000280 4e 69 13 3e 6a 10 d7 3e 45 ae 39 bd df 06 ae 3e
       0.1439564 0.4200471 -0.045332212 0.33989617
000290 bb 3f 1d be 2b 48 5f 3e 95 bb a1 bb 5d 24 90 3e
       -0.15356342 0.21804874 -0.0049356916 0.28152743
0002a0 20 3d bf bb c9 32 d5 3d 8f 25 dd 3d 8b 73 e7 3e
       -0.005836144 0.10410077 0.10798179 0.4520534
0002b0 2d 02 5e 3d ab d6 d5 3e 48 a2 0a 3e 01 36 29 3e
       0.054201294 0.4176534 0.13538468 0.16524507
0002c0 b2 d1 62 3e c2 c8 d0 3c 2e e3 eb bc b4 8d 46 3e
       0.22150305 0.025486354 -0.028794851 0.19389993
0002d0 dd 39 05 3e 62 ef 94 3e c4 4b e9 3d 43 93 b7 3d
       0.13010354 0.29088885 0.11391404 0.08963635
0002e0 fc 80 57 bd 5f e8 b8 3e f6 a2 dc bd 99 ef c1 3d
       -0.052613243 0.36114785 -0.1077327 0.09469528
0002f0 aa cc a8 bc 59 f7 95 3e a3 a6 3d 3e dc 3d 7d ba
       -0.020605404 0.29290274 0.18520598 -0.0009660402
000300 4a 02 aa bd a2 0e 31 3e a2 f4 ed 3a a4 d5 b7 3e
       -0.08301218 0.17290738 0.0018154571 0.35905182
000310 51 c2 2a 3d 4d 9b 22 3e 5b ab bf 3d 1c 11 71 3e
       0.04168922 0.15879555 0.09358855 0.23541683
000320 9e c0 ab 3d 6d 35 53 3e 10 39 11 3d 50 e3 91 3e
       0.08386348 0.20625849 0.03545481 0.28493738
000330 39 0d 3b be bb f2 d9 3e 38 62 16 be b7 03 ca 3e
       -0.18266763 0.42568 -0.14685905 0.3945596
000340 92 2f 85 be 92 b3 89 3e e6 0e 64 3d f5 c8 72 3e
       -0.26012856 0.26894814 0.05567827 0.23709472
000350 e9 77 62 bb 81 1f 96 3e ac 85 2a bd e3 74 c5 3e
       -0.0034556335 0.2932091 -0.041631386 0.3856574
000360 a1 74 37 be 5b 23 ae 3e a8 69 0a be 57 4d 80 3e
       -0.17915584 0.3401135 -0.13516867 0.25059006
000370 f7 7a 9c be d1 b8 c8 3d c1 7b 0e be c4 80 ac 3e
       -0.30562565 0.09800876 -0.13914396 0.3369199
000380 e9 32 cc be 1b f3 f4 3d e3 46 0a be 2b c4 fe 3e
       -0.3988259 0.11960431 -0.13503604 0.4975904
000390 47 93 69 3d 43 a9 83 3e c0 2f 35 bd ce 23 0e 3e
       0.05702522 0.25715074 -0.04423499 0.13880846
0003a0 54 fb 87 bd ac 28 b4 3e af 7c 1b be 87 8b 62 3e
       -0.06639734 0.3518728 -0.15184282 0.22123538
0003b0 2a ca 0e bc a5 13 4e 3e 74 f3 84 be 1a a6 82 3e
       -0.008715192 0.20124681 -0.2596699 0.2551735
0003c0 af 6f 8d bd be ff 0d 3e d0 8a 71 bc f8 f5 d5 3e
       -0.069060676 0.13867089 -0.014742568 0.41789222
0003d0 f6 4f 45 be f3 92 2c 3e 9a 10 1c be ca 13 01 3c
       -0.19268784 0.16852932 -0.15240708 0.007878253
0003e0 78 b9 0c be 8f 21 2c 3e 8e e8 33 3d 03 8a 89 3d
       -0.13742626 0.16809677 0.043922953 0.06715777
0003f0 ef fa d1 bd e9 03 a9 3e cd 8a 3f be a2 04 a2 3e
       -0.1025294 0.33010796 -0.18705292 0.3164416

bias_user.weight f4 [6041, 1]
000000 80 12 0e 81 df 46 8c 3e 07 c1 17 3d 2f 26 b2 3e
       -2.6094554e-38 0.2739782 0.03704932 0.34794757
000010 90 c0 02 3f 31 8d 19 bf 56 fb 0a 3e 39 b4 fe 3d
       0.5107508 -0.59981066 0.1357244 0.124367185
000020 83 e9 0d 3f 03 70 20 be 17 bb e0 3e 73 63 f2 be
       0.55434436 -0.15667729 0.43892738 -0.473415
000030 31 e8 23 3d 74 a1 72 be 3c a4 fe be 9d 9f a7 be
       0.040016357 -0.23694402 -0.49734676 -0.32738963
000040 e3 09 a9 3c 20 cf f5 3e ce f1 c6 3e 62 58 37 3e
       0.020634597 0.48009586 0.38856357 0.17904809
000050 fc ba 0a 3f cc a3 5e bf 3a db b4 be 93 eb 88 be
       0.54191566 -0.86968684 -0.35323507 -0.2674223
000060 58 71 44 3e a8 4c f1 3d 80 35 d2 be b2 36 84 be
       0.19183862 0.11782199 -0.41056442 -0.2582298
000070 68 a7 1b be 60 26 39 be 70 ca f3 be eb 7c 3c be
       -0.15200579 -0.18081045 -0.47615385 -0.18407027
000080 84 19 29 bf 16 03 d1 bd d6 21 c4 3e e1 96 85 be
       -0.6605456 -0.10205667 0.38307065 -0.26091674
000090 59 40 35 3f 91 d4 bb bd 53 4e 10 be e5 20 7d 3e
       0.7080131 -0.09171403 -0.14092378 0.2471958
0000a0 b0 6d cd 3b 89 d4 75 be 4d f7 27 3e 0d f6 1a 3f
       0.0062691793 -0.24006857 0.16402932 0.60531694
0000b0 7f b2 8f 3d 10 1d 2a bf 8c d2 91 be 1e 70 77 be
       0.07016467 -0.66450596 -0.28480947 -0.24163863
0000c0 08 4f 85 be 78 9b ad 3e dd c4 95 be 87 b1 9a 3e
       -0.2603686 0.33907676 -0.29251757 0.30213568
0000d0 2c ca 4e be d2 26 7b 3f 11 34 b5 3d bb da ce 3e
       -0.2019431 0.9810611 0.088478215 0.40401253
0000e0 e4 c8 fc 3d 5b 7b c4 be bf 4d f3 3e e2 02 22 bf
       0.12343004 -0.38375363 0.47520253 -0.6328565
0000f0 b2 55 42 be 5b 8f a8 be 80 31 10 3d 4e 00 48 3e
       -0.18978003 -0.32921872 0.035203457 0.19531366
000100 dc e8 90 3c f7 08 13 3f d7 3c 83 3e 64 04 d7 3e
       0.017689161 0.57435554 0.25632355 0.41995537
000110 c8 71 a5 bc 17 04 92 3e 0c 7c f6 3e 8b b7 0e 3e
       -0.020195857 0.28518745 0.48141515 0.13937204
000120 1c 1d f5 bd 39 f8 13 3e 28 67 8d 3c 3f aa 48 3f
       -0.11968443 0.14450158 0.017261103 0.78384775
000130 b1 b9 d3 3e c3 b9 bd be 20 a1 ed 3d 95 dc 85 3e
       0.4135261 -0.37055787 0.11602998 0.26144853
000140 bc 52 5f 3e e1 68 52 bd 1d e1 fc 3e 79 4f e1 3e
       0.21808904 -0.05136955 0.49390498 0.44005945
000150 92 5a a1 be 0b 4b 91 be c1 e3 45 3f 62 01 75 bf
       -0.31514412 -0.28377566 0.7730065 -0.95705235
000160 72 99 68 3e d2 d4 d8 bc 1f fb d2 3d 0e 72 4e 3f
       0.22714785 -0.026468668 0.10301804 0.80642784
000170 0e 9a 38 bf be e2 36 be 83 2a 43 3f 30 16 d4 bd
       -0.7211007 -0.17859933 0.7623674 -0.103557944
000180 fc 37 10 bf d1 3f f1 3e ac eb c4 3d 69 4e aa bd
       -0.56335425 0.47119 0.09615263 -0.08315737
000190 f4 a6 c9 be 18 b9 67 3f d0 f0 47 be d6 34 ff 3e
       -0.39385188 0.90516806 -0.19525456 0.49844998
0001a0 1e fa 76 bc 78 25 0e 3f 52 b9 91 3e e6 a6 c6 bd
       -0.015074281 0.5552592 0.284617 -0.09699802
0001b0 83 3a 1d bd 7d 2d b8 3e 5b 1c 45 3e 75 96 f7 bd
       -0.03838588 0.35972205 0.19249098 -0.12089244
0001c0 1f 9b 06 3e 4c 2f b3 3d b8 3d bd 3d 1a c1 03 3f
       0.13145112 0.087492555 0.092402875 0.51466525
0001d0 8e 92 df 3e a6 ca e0 3d 54 0e 5b 3e 73 d3 7a 3e
       0.436665 0.10976152 0.21392184 0.24494724
0001e0 4e a4 ae be ca 5c 50 3f 88 3f b6 3d 8c 4f 84 bc
       -0.3410973 0.81391585 0.088988364 -0.016151212
0001f0 b6 85 b7 3e 46 71 be 3e b3 b6 a8 3e fc 1e 1f 3e
       0.358442 0.37195796 0.32951888 0.15539163
000200 5a af 0b 3f 0f c4 5c 3e 78 8a d0 3e 71 92 17 bf
       0.5456444 0.21559165 0.40730643 -0.59207827
000210 cb fa b8 3e 82 e5 69 3d fe f5 85 be 42 2e 01 3f
       0.3612884 0.05710364 -0.2616424 0.5046121
000220 cc 17 f6 be fb bc 2f 3e 28 ed d3 3e 70 92 74 3e
       -0.4806503 0.17161934 0.41391873 0.23883986
000230 4e c2 d6 be 67 d9 0f bf dc 93 e0 be 16 81 b0 be
       -0.41945118 -0.56191105 -0.43862808 -0.34473485
000240 34 f4 c0 be 01 c8 0c bf 84 0c b1 bd d0 6d 2e 3d
       -0.37686312 -0.5499268 -0.08644965 0.042585194
000250 f5 f4 0d 3e 11 b5 fa 3e 33 17 5a 3e ae bc 8f 3e
       0.13862975 0.48966268 0.21297912 0.2807364
000260 8a e6 a8 3e fe 7d 59 3f d5 1a 3f be c0 33 98 be
       0.32988387 0.84957874 -0.1866258 -0.29726982
000270 ea 36 c4 3e 89 62 2f 3e 87 fb 50 3f 6a ed a4 3e
       0.38323146 0.17127432 0.816338 0.32212383
000280 5c 98 52 be e8 d7 e7 3e 5d 49 12 3f d8 1e 6d bf
       -0.20565933 0.4528191 0.57143193 -0.9262519
000290 d2 28 1d 3f 40 e1 c2 bd 3e 9f 98 3e 96 37 94 be
       0.6139041 -0.09515619 0.29808992 -0.2894866
0002a0 05 42 2c 3e 07 5d 4d bc 1b 27 a9 3e ce d2 90 3e
       0.1682206 -0.0125343865 0.33037648 0.2828583
0002b0 45 f9 58 be 35 61 9e bd 17 41 da 3d 04 61 42 3e
       -0.21188839 -0.077333845 0.10656946 0.18982321
0002c0 76 5a bc 3e 26 76 e1 3e cb 79 d7 3d 44 8d 08 bf
       0.36787766 0.44035453 0.10521277 -0.53340554
0002d0 62 f7 47 bd 6b 5c 4e 3e b7 0f 9b 3d 7c b9 2c 3e
       -0.048819907 0.20152442 0.07571357 0.16867632
0002e0 b6 b6 65 3e 4a ca a4 bd 8a e7 58 3f 99 74 0c 3f
       0.2243298 -0.08046396 0.847283 0.54865414
0002f0 c7 b0 1f be 8c e7 3e 3e b9 f5 4d be bd 18 9f be
       -0.15594779 0.18643016 -0.20113267 -0.3107356
000300 d7 30 35 be 48 7f ce bd 99 5f ea 3e 66 14 50 3f
       -0.17694412 -0.10082871 0.4577606 0.81281126
000310 11 e3 2a bd 34 ac 86 be 9d 6e 8d 3e e4 7a 45 bd
       -0.041720454 -0.26303256 0.27623454 -0.0482129
000320 68 2e 07 be 98 27 0c 3f 6f a8 8b 3e 49 36 b1 bf
       -0.13201296 0.54747915 0.27276942 -1.3844692
000330 c2 85 2f 3d 6c 0b 60 3d 6d 60 31 bf fd a5 ce 3e
       0.04285217 0.054698393 -0.6928776 0.40361014
000340 91 c2 83 bc 0f df b5 be f6 92 75 3f b6 26 dc 3e
       -0.016083987 -0.35521743 0.9592737 0.42998284
000350 f5 f4 56 3d 4f 75 15 3f 58 24 d1 3d bc 22 97 3f
       0.052479703 0.58382124 0.1021201 1.1807475
000360 1b 18 42 3c c9 be 6a 3d d2 4c 39 bc 05 98 48 3e
       0.0118465675 0.057310853 -0.011309819 0.19589241
000370 11 eb db 3e 58 b7 70 3d b9 eb db 3e 62 17 70 be
       0.4295278 0.0587686 0.4295328 -0.2344642
000380 92 4b e8 be e0 3b 7f be 1d 40 58 be 1e af 3d be
       -0.45370156 -0.24925184 -0.21118207 -0.18523833
000390 c0 ba 00 3f 4b 41 00 be 26 10 01 3f d0 7e 58 3f
       0.5028496 -0.12524907 0.50415266 0.845685
0003a0 c0 46 b5 bd b1 82 03 3f f1 06 0d 3f 70 1b 86 3e
       -0.08851385 0.51371294 0.55088717 0.26192808
0003b0 10 d2 03 3d ee f0 7a be 36 9a fe 3c 89 a1 17 3e
       0.032182753 -0.2450597 0.031079393 0.14807715
0003c0 33 3e db be b4 30 9e 3d 5c ef 8d bd c8 d1 20 3e
       -0.42820892 0.07724133 -0.0693042 0.15705025
0003d0 ca 69 ef 3e 11 8f 1d bf 48 8c df 3e be 74 a8 3d
       0.46760398 -0.61546427 0.43661714 0.08225392
0003e0 e9 60 12 3f 72 5c f1 3e c3 b8 97 3e 83 c7 1a 3e
       0.57179123 0.47140843 0.2963315 0.1511517
0003f0 c0 ab 28 3f 0a 88 e9 bd 49 1c 17 3d 7a 79 0c 3f
       0.6588707 -0.114029005 0.03689221 0.5487286

bias_item.weight f4 [3953, 1]
000000 8a 17 3b 80 92 2a 6b 3f 11 89 12 3e aa 87 ce bc
       -5.426738e-39 0.9186183 0.14310099 -0.025211174
000010 55 b7 d6 be ce df 89 be f6 b0 1e 3f 6e 4d 25 3e
       -0.41936746 -0.26928562 0.6198877 0.16142818
000020 14 59 c1 bd a1 a1 1d bf 7f 13 69 3e 94 af 09 3f
       -0.094408184 -0.6157475 0.22761343 0.53783536
000030 ea d2 54 bf 5d 1f 74 3e 3c c9 dd 3e f6 01 c3 be
       -0.8313433 0.23840089 0.43317592 -0.38087434
000040 e6 ca 1e 3f 72 de 38 3f 8d d0 8d 3e f5 93 56 bf
       0.6202835 0.72214425 0.27698174 -0.83819515
000050 ff 6a 09 bf b2 52 b7 3e ee 5e bd 3d f9 58 be be
       -0.5367889 0.3580528 0.09246622 -0.37177256
000060 d4 6e 4e 3c 47 aa ef 3e d7 f2 1a 3f f1 0e a6 be
       0.012599666 0.468096 0.60526794 -0.32433274
000070 0c 77 68 3f 0c 5f 29 3f 04 a6 5b 3e 1c cf 20 be
       0.9080665 0.66160655 0.21450049 -0.15704006
000080 59 66 39 3f a3 b1 e7 3d ab 52 50 3f cf c0 7c 3e
       0.72421795 0.113131784 0.8137614 0.24682926
000090 2b 9d 43 3f 54 1e 57 3f 82 27 5c bf 4f 48 0f 3f
       0.76411694 0.8403065 -0.85997784 0.5596971
0000a0 23 c5 f6 3e d5 86 19 3f d6 48 c5 bd 6d d6 54 3e
       0.48197278 0.5997136 -0.09633033 0.20784922
0000b0 22 7c 00 bf e6 ad 6d 3e 35 91 9b bd 47 e2 58 3f
       -0.5018941 0.23210868 -0.075960554 0.8472027
0000c0 5f 3a 5e be 17 26 24 3f b3 38 a9 3f f8 7e fa 80
       -0.21701954 0.6412062 1.3220428 -2.3004422e-38
0000d0 37 e2 18 3f 5a b6 60 3f e4 9f 3c bf 3b 3c b2 be
       0.59720176 0.87778246 -0.73681474 -0.34811577
0000e0 1d 5a 60 bf 93 eb f4 3d fb 9c 3d 3f d2 6a 93 3e
       -0.876375 0.11958995 0.7406766 0.28792435
0000f0 10 35 01 3c dd bb 83 be 01 58 f8 3e 3f 8b c9 be
       0.007886186 -0.25729266 0.48504642 -0.3936405
000100 5f 36 53 bf 3d 05 6e bf 91 a8 a7 bf 53 5e ec 3e
       -0.8250484 -0.92976743 -1.3098317 0.46165714
000110 52 d4 a5 3e 8f 31 ff 3e fe 47 c9 bd df dd 8c bf
       0.3238855 0.49842498 -0.098281845 -1.100521
000120 17 86 04 3e b7 96 27 3f 09 49 62 be 7e 45 4f bf
       0.12941776 0.6546435 -0.22098173 -0.8096541
000130 5b e0 9d be f9 ce 3b 3f 55 b9 bb bc 0e 23 19 bf
       -0.30835232 0.7336269 -0.022915522 -0.59819114
000140 42 09 14 3f f9 fb 23 3d 48 b8 0e 3f e0 65 11 3f
       0.57826626 0.04003522 0.5574994 0.56796074
000150 ad 61 1d 3d 03 b3 b5 3e 91 4c 5c 3e c2 c8 78 bf
       0.03842323 0.35488138 0.21513583 -0.9718133
000160 ba 8f c5 be 6f 19 84 3d a1 69 f1 3e 2a 7f 49 81
       -0.38586217 0.064501636 0.471509 -3.7009105e-38
000170 79 e2 2d bf f2 e3 6e bf 73 8e 0e 3f 0f b9 cd be
       -0.67923695 -0.93316567 0.5568611 -0.4018025
000180 44 20 f7 3e 52 82 89 3e dc a1 06 bf 93 70 a6 3e
       0.48266804 0.2685724 -0.5259073 0.32507762
000190 31 bf 23 3d a7 78 e7 3e 18 d8 ac bf 28 dc 8e 3e
       0.039977256 0.45209238 -1.3503447 0.2790234
0001a0 a0 8c 46 3d 30 ef de bd 9a 37 1f 3f 14 b3 3b be
       0.048473954 -0.10885465 0.62194216 -0.18330032
0001b0 75 ce d4 3d 82 ec 30 80 43 87 81 3f 84 d2 67 3f
       0.10390941 -4.492947e-39 1.0119404 0.90555596
0001c0 21 a4 a5 3e e6 9e 76 bd c9 92 c1 ba 3d 82 c0 80
       0.32351783 -0.06021013 -0.0014768477 -1.7679136e-38
0001d0 5d 9d 20 3f be 3f d0 3e 06 3c 05 3d e3 d6 8a bd
       0.6274012 0.4067363 0.032527946 -0.06779268
0001e0 9e 5f 2f 3c 45 3d 29 3f 41 05 6e be bf e5 55 3f
       0.010703949 0.66109115 -0.23244192 0.8355369
0001f0 8a ff cc 3e f3 ca 01 3f f5 0a 8b bf 67 fb 3c be
       0.4003871 0.507003 -1.0862719 -0.18455277
000200 a3 e6 2f 3f 34 ca a1 3e 25 85 0e 3f 4d a0 a0 3d
       0.687113 0.3159958 0.5567191 0.07843075
000210 ce 2f 07 bf 3b 90 87 be 6c a9 d1 3e c2 29 5b be
       -0.5280732 -0.26477227 0.4094957 -0.21402648
000220 9c c1 29 3f 4e 64 25 bf ca b5 66 bf fb 63 e3 3e
       0.6631105 -0.6460618 -0.9012114 0.44412217
000230 f0 e5 00 be 13 d7 cd 3e 71 c8 ae be 84 78 73 80
       -0.12587714 0.4020315 -0.341373 -1.0604315e-38
000240 6d c8 6c 3e 6f 34 a3 bd 58 19 59 bf 83 b8 93 3e
       0.23123331 -0.07968985 -0.84804296 0.2885171
000250 19 c7 0b bf b1 b9 1c 3f aa 90 52 3f 3c 86 03 3f
       -0.54600674 0.6122084 0.8225199 0.513767
000260 f0 ee d8 be 71 f7 0c bf 87 da bd 3e 15 8d 7f 3e
       -0.42369795 -0.55065066 0.37080786 0.24956162
000270 a0 90 0f 3f 69 8e cd be 07 d5 90 be ad 39 68 3d
       0.56080055 -0.40147713 -0.28287527 0.05669563
000280 69 52 59 bf 57 62 17 3f d2 49 e8 3e c3 2c ab 3e
       -0.8489137 0.5913443 0.4536882 0.33432588
000290 3f 8b ca 3e 05 9c 84 3e 10 7e 7a bf cd b2 21 3f
       0.3955936 0.25900283 -0.97848606 0.63163453
0002a0 9d 5f ac be 5e 2c 91 bf f2 45 9f 3c 37 c2 17 3f
       -0.33666697 -1.1341665 0.019442532 0.59280723
0002b0 00 80 21 bf be 3b 69 bf 9d 41 3c bf ca 9e 36 3e
       -0.6308594 -0.91106784 -0.7353762 0.1783401
0002c0 5a 67 2c 3f 78 42 63 be 27 e6 36 3e 3c ee 20 bf
       0.673452 -0.22193325 0.17861234 -0.62863517
0002d0 8a cf 81 3e a5 fe ba bf bf ea a0 3d c7 dc eb 3e
       0.25353652 -1.4608961 0.07857274 0.46066877
0002e0 c7 fd b3 bb dd 7f 9b be 1e 3a df be 77 e4 c3 3d
       -0.005492899 -0.3037099 -0.43599027 0.095650606
0002f0 13 a4 16 3b 56 9c 9f 3e 5b e4 b2 3e 8b 85 12 bf
       0.002298598 0.31173962 0.34939846 -0.5723502
000300 b5 07 92 be 86 60 69 bf 21 2e 09 3f 25 2e 1f be
       -0.28521505 -0.9116291 0.5358601 -0.15544946
000310 2d 2e a8 be 92 16 57 3e b1 3f a5 3d 11 38 9e 3e
       -0.3284773 0.21004704 0.08068789 0.3090215
000320 aa ae 0c bf 63 77 a5 be 3e 60 be be 27 1e 97 be
       -0.54954016 -0.32317647 -0.37182802 -0.29515192
000330 41 18 e1 be d1 ad 90 3e 7d 8d 1c 3f 22 73 5c be
       -0.43963817 0.2825761 0.61153394 -0.21528295
000340 10 d2 2f bf 84 2d 88 be 65 a3 19 3e c3 7b a9 3e
       -0.68679905 -0.26597226 0.15003736 0.33102235
000350 e0 13 9b bf 67 8b 2d 3f c2 30 2d 3f 3b 35 e8 3e
       -1.211544 0.67790836 0.67652524 0.45353112
000360 37 76 70 be d9 bb 16 bf ce 23 57 3d eb 45 43 3f
       -0.23482595 -0.5888038 0.05252438 0.7627856
000370 fc f2 93 bf 9c 52 69 80 68 65 bf 3e bd 71 44 3f
       -1.1558528 -9.672362e-39 0.37382054 0.7673605
000380 9c f7 54 3e e1 db a6 3d 58 f7 8f bd 80 27 19 bf
       0.2079758 0.08147407 -0.07029599 -0.598259
000390 d5 67 e0 be 60 85 c6 3e 7a 07 de 3d 41 a0 d8 bd
       -0.43829218 0.38773632 0.1084127 -0.10577441
0003a0 ce 15 5b 3f d6 33 2f 3e ed 9b 1a bf c1 aa 7f 3e
       0.85580146 0.17109618 -0.60394174 0.24967481
0003b0 b6 b9 f5 3d 31 32 cf bd 7b d1 32 3e 66 54 ee be
       0.11998312 -0.10116995 0.17462723 -0.46548766
0003c0 dd f0 0f bf 3c 87 73 bd 5c a6 87 3e 89 0e 98 bf
       -0.56226903 -0.05945514 0.2649411 -1.1879436
0003d0 4b 2b 3d bf d5 86 27 bd 32 6a 73 3f 47 5b c7 3e
       -0.73894185 -0.04090007 0.95083916 0.38936827
0003e0 b5 80 ff bd ce 60 1f 3f 33 13 2a bf 83 17 26 3e
       -0.12475721 0.6225709 -0.66435546 0.16219907
0003f0 fe 3a 02 3e 7a 33 c9 3e e1 da bb bd e4 a0 96 bf
       0.12717816 0.39297086 -0.09172607 -1.176785
