Matrix-Factorization-Experiments/models/vanilla_mf.pth (torch_old, 400324 bytes, 2 tensors)

user.weight f4 [6041, 10]
00000000: a579 2b01 1896 8d80 5062 2b01 8a4f bf80
00000010: 5b1a ce00 2668 0481 90ea 1980 9041 4300
00000020: 16e0 b480 11b8 8f80 a49f bd3f 6d2b 02bf
00000030: deac 01bf d85c 713f 4046 833e a459 a33e
00000040: 404c 143f 9eb8 20bf df8d 68be d7a2 15bc
00000050: 2fe5 c13f a5ca aebe e091 1cbe d4a4 1f3f
00000060: a3c2 23be a548 513c c09e 783e a51a 38bf
00000070: c51f ca3d fb9c 9fbe 2d06 2b3f 1dca 57be
00000080: 11c3 96be 7108 0340 5dae 60bf d321 02be
00000090: 3218 143f 2081 d2be a60c 533f ee2b 8bbe
000000a0: 55c7 ba3f f8fa 65be 9134 4cbe 4fd5 a93f
000000b0: 8708 163f f2ed 02be 8c4c a5be 07ff 09be
000000c0: 40b6 40bd 315c 3f3f a648 4e3f 8e35 fd3e
000000d0: 2211 d8bd 94db a63f 25b2 483e a586 193f
000000e0: 2a4c dfbe e600 a63f 7c67 983e ac54 ca3d
000000f0: 1c89 cb3f 804b 563c a093 b8be 7376 543f
00000100: 87e7 4cbf 97ef 77bd 229f 30bd 47a8 7dbf
00000110: 3e53 933e 2eaf 6cbe 0b92 973f 3d1e 86bf
00000120: 8ce4 3c3f e9a0 c23f ab9e ffbe bb04 633e
00000130: 2379 ffbe 9fc3 15bf 763a ccbe d692 2e3f
00000140: 9990 c03f 47e7 93be 7269 d9bd 4980 ac3f
00000150: 0be0 93bd defc aa3d 57ef f23d 5378 403e
00000160: 88b1 19bf b7e4 0bbe b988 bf3f 062b 77be
00000170: 5828 33be 8346 803f 7f4f 5e3d 9b3e a7be
00000180: f10b 103f 457b a53d 8d4a b2be 257c bbbe
00000190: 9921 dd3f db15 e03e 0288 a7be 5bfa 603f
000001a0: 57fa 4fbf d759 b23e 2925 8a3d 23f6 bbbe
000001b0: 4f08 ae3e c08e ccbe f82d 2e3f 61e0 82be
000001c0: ead6 b7be a036 9b3f a982 d63e be2d 2bbf
000001d0: 6060 363f 052c 313f 1c9c c53e 1463 503f
000001e0: d081 953f 9917 bf3e 4190 ea3e 1a0d b43f
000001f0: d220 453e 137e 2fbe 776f 85be d715 a2be
00000200: 04d8 30bf 06f2 3b3f 6a58 b73f f0e4 88be
00000210: db4c 153e 1d03 3d3f f38a 9a3e a91e 3fbe
00000220: 6641 f0be de5e 2fbf fca0 f7be e729 b7bd
00000230: 18d4 f73e 98e4 55bf 4dfc c53e 6dbd dd3f
00000240: 34cd 15bf 9097 63bf 7389 40be d442 40be
00000250: fdfe 4b3f f383 973f 8a43 973f 9e2a 24be
00000260: 016f 02bf b7a7 7d3f a44d ecbe 7c0d d6be
00000270: 049d 993e 960a ecbe 19bb 01be 2da4 5f3e
00000280: e712 ec3f c2d1 0abe 9f83 b33d 10de 4f3f
00000290: 7556 ad3e 7d8f c03e c282 0a3f 5999 2bbf
000002a0: f924 123e ccc3 f6be cba7 d83f 8b53 b6bb
000002b0: 44c8 103e ac2c 9d3f 5b26 c4be 3978 fe3d
000002c0: 7224 abbd 9d33 ba3e b28d 74bc 7c83 0dbe
000002d0: 07ce ac3f 5700 28be 759e 9c3e f4f9 a73f
000002e0: 44e5 56bc 23d3 01bf 250d 013f 30fd 903d
000002f0: 953b 033f 104b 35bf c7cd cb3f 75b6 a93b
00000300: b224 313d dbd6 753f 52e1 9abe f8d9 30bd
00000310: 5b17 133f 43c8 513e b671 423d b91b 123f
00000320: 3a40 b13f 7533 073d df36 2a3e 0bd6 923f
00000330: 2e4a d33d 65e7 dbbc fa42 e03e 22be 083d
00000340: 4eb7 68bd 23fb 4b3f 3677 b53f 8822 013f
00000350: 4aba 153f b9d0 963b d87f d3be 999e b03f
00000360: c74a e8bd 0a4e af3f 15c5 c8bd 657f 503e
00000370: af0b a83f fa97 06bf 6190 1c3e bba5 773f
00000380: f224 0abe 5ba1 433e 4168 6d3e e6e7 473f
00000390: d5ef 723e b0cc 66bc 0fe9 d13f f44a 3f3e
000003a0: 0de4 b83e 6941 263f 46e4 9cbe 47ac b53e
000003b0: 09f1 5dbe 1b19 f23e b193 47bf 0172 363f
000003c0: f5e4 9b3f 8322 b93e 795e 2d3d 4e9a cc3f
000003d0: b8d6 fe3e 1367 bd3e 2c8a bd3e 28b9 02be
000003e0: fbaf 373e 8c2a 3d3e e745 d53f 0e84 44be
000003f0: 3a18 4b3e 92fd 3d3f f8f3 a3bf 1392 15bf
3.1495015e-38 -1.3002648e-38 3.1478275e-38 -1.7569113e-38 1.8927567e-38 -2.4319294e-38 -2.380033e-39 6.176498e-39
-1.6610776e-38 -1.3198507e-38 1.4814343 -0.5084751 -0.506544 0.94282293 0.25639534 0.31904328
0.5792885 -0.62781703 -0.2271037 -0.009133062 1.5148066 -0.3413898 -0.15290022 0.6236088
-0.15992217 0.012773667 0.24279308 -0.71915656 0.09869341 -0.31174454 0.668063 -0.21073194
-0.294457 2.0473902 -0.8776606 -0.12708215 0.5784942 -0.4111414 0.82441175 -0.27181953
1.4592081 -0.22459018 -0.19941927 1.3268222 0.5860676 -0.12786081 -0.32284963 -0.13476191
-0.047048807 0.7475005 0.805796 0.4945492 -0.10550143 1.303576 0.19599207 0.59971076
-0.43612796 1.2969024 0.29766452 0.09879431 1.5901217 0.013079524 -0.3605013 0.8299324
-0.8004078 -0.060531225 -0.04312051 -0.99084896 0.28774446 -0.23113701 1.1841444 -1.0477978
0.73786235 1.5205356 -0.49925742 0.22169773 -0.49897107 -0.5850162 -0.39888352 0.68192804
1.5044128 -0.28887388 -0.10615815 1.347665 -0.07220467 0.08349012 0.11862057 0.187959
-0.60036516 -0.13661467 1.49636 -0.24137506 -0.17495859 1.0021518 0.054275032 -0.32664952
0.5626822 0.080801524 -0.34822503 -0.36618152 1.7275878 0.43766674 -0.32720953 0.8788201
-0.81241363 0.34834167 0.06745369 -0.36711225 0.33990714 -0.3995266 0.6803889 -0.25561813
-0.35906154 1.2126045 0.4189656 -0.6686667 0.71240807 0.69207793 0.38595665 0.8140118
1.1680241 0.3732269 0.45813182 1.4066498 0.19250801 -0.17137937 -0.26061603 -0.31657287
-0.69079614 0.73416173 1.4323857 -0.26737165 0.145801 0.73832875 0.30184135 -0.1866404
-0.46924895 -0.6850413 -0.4836501 -0.08943539 0.48404002 -0.8355193 0.38669053 1.7323433
-0.5851624 -0.8890314 -0.18802433 -0.18775493 0.79685956 1.1837143 1.1817486 -0.16031882
-0.5095063 0.9908404 -0.46152985 -0.41807163 0.30002606 -0.46101826 -0.12669028 0.21839972
1.8443269 -0.13556579 0.08765339 0.81198215 0.33855024 0.37609473 0.5410577 -0.67030865
0.14271916 -0.48196256 1.6926206 -0.0055641583 0.14138895 1.2279258 -0.38310513 0.124252744
-0.08356561 0.36367503 -0.014926361 -0.13819689 1.3500375 -0.1640638 0.30589643 1.3123155
-0.013116185 -0.50712794 0.5041068 0.07079542 0.5126279 -0.7081766 1.5922173 0.0051792213
0.043247886 0.9603097 -0.3025003 -0.04317662 0.5745751 0.2048655 0.047471724 0.5707355
1.3847725 0.033008058 0.16622494 1.1471571 0.10316883 -0.026843736 0.438011 0.03338445
-0.056815438 0.7968008 1.4177005 0.50443316 0.5848738 0.0046025184 -0.41308475 1.37984
-0.11342388 1.3695691 -0.098032154 0.20361097 1.3128566 -0.5257565 0.15289451 0.9673726
-0.13490656 0.19104521 0.23184301 0.78088224 0.23724301 -0.014086887 1.6399249 0.18680936
0.3611149 0.6494356 -0.3064291 0.35483 -0.21673979 0.4728478 -0.77959734 0.71267706
1.2179247 0.36159143 0.042326424 1.598459 0.49773192 0.36992702 0.3701948 -0.12765944
0.17938225 0.18473262 1.6661958 -0.19191 0.1983346 0.7421504 -1.2808828 -0.58426017

item.weight f4 [3953, 10]
00000000: b04c af00 4377 8180 71e8 a980 3436 1f01
00000010: f047 2d80 841f 3e01 ff5d 4201 626f 5000
00000020: b630 b580 a0d0 4d80 a6f7 fa3f a380 0e3f
00000030: b800 ca3e 576c ac3f bbc7 273e e2d4 cfbd
00000040: a674 853e bec1 8bbe c037 3ebd ead6 c2bd
00000050: e90d d33f 76a6 b43e 0b7c bc3d 2355 3a3f
00000060: e330 1dbf 544f d93d 2993 bc3d 5bd2 cabe
00000070: 9fc6 90bc 2a0b a0be c8fa a13f d0c3 1abd
00000080: fc85 07be 0282 573f 8c51 b3be 1e1a db3e
00000090: 1f00 433f 0783 ecbe f9f9 a53e 5278 153f
000000a0: e53c 943f d759 d83e d448 07bf b894 7d3f
000000b0: 2648 22be 1338 123f 869a b8bc 7c37 1bbf
000000c0: dd57 1b3f 8602 aebe f14d ae3f 1879 153e
000000d0: f394 d8be 2d08 1e3f 57b2 d6be b53b 0a3f
000000e0: 93e6 d33e 1206 59bf 5dee 423e c7c8 77bd
000000f0: d322 b93f e1b0 12bf 0cc8 4fbe e96d c43f
00000100: 3d64 393e 2c75 7bbe b852 4e3d 4f60 2ebd
00000110: 1940 8abe 1a73 c43e 34ab d73f f6d5 d83e
00000120: 3fee 4dbe 46b2 373f 5c15 b5be 6339 81bd
00000130: 41b0 713e b2f3 47bf 4146 ef3e 60ef 4f3e
00000140: 8b3a 833f 5a61 8abe 4fc0 4ebe 4562 943f
00000150: 2d1a c4be 2d77 8f3f 633f 35be 072e 24bf
00000160: bee3 9ebd b96e 7ebd 63cd 353f 4a76 3fbe
00000170: 4adb 88be bd4c 7d3f 7fca 33bf ac21 e73e
00000180: 94a7 59be f3a9 51be 7911 0bbf 47a4 113f
00000190: eef4 b03f 049d 1e3e 556f cb3e 7b0d 9c3f
000001a0: 9b1d 2bbf bdc1 3ebe fbf3 b23d e5fb 1abe
000001b0: 8a92 9b3c 24cc 2f3f afd0 d43f 122b 593e
000001c0: ddab cf3c 540f 943f a216 8ebe fac5 7fbe
000001d0: 8407 a03e 3408 06bf 07b6 f23d 6e21 39be
000001e0: 7260 3f3f 5bc9 45be 5fdd 383e 0470 8a3f
000001f0: af5a 61bf 4e0f 113f 1aeb 1c3e abbc a5ba
00000200: 2ee7 5e3e 303d 273f ceca ab3f 0473 41be
00000210: df85 99be fdd1 923f bb56 b4bd 37c6 ca3e
00000220: ad2e 8c3e 31cf 4ebf dc67 753e 1176 a3be
00000230: 7b41 8f3f 7cc3 84be 0e11 86be 2e60 c63f
00000240: f810 b13e 6c57 1fbe a42a 2dbf 9e89 4dbe
00000250: d9cf 543e 9dad 903d 10af c63f a980 633e
00000260: 44b9 85be 4786 023f f933 9ebf 59d3 3b3e
00000270: 91fd a3be 43dc 03bf ee0b 123f 2357 613e
00000280: a704 cb3f f103 32bf 2010 ddbe d2f8 b43f
00000290: 920c 423e c20a fcbd c94c 95bb c455 5c3e
000002a0: 0774 1cbe 7ef3 943e 68fb d93f d3d8 5e3f
000002b0: 5202 91bc 00d7 9f3f 62f6 043f 5d62 803e
000002c0: 06ad cfbd da7d a2be 32c6 323f 200a 7abe
000002d0: 6c8c ce3f 8de4 03bf 0a20 8a3e 5168 453f
000002e0: 9e02 59bf 1b3a e3be f9cd e0bd 9ce6 163f
000002f0: 4b7f 4b3e 4949 0c3f c14f d73f dd0c a0be
00000300: 0724 bd3e 1429 353e 4fce a8be 2022 f03e
00000310: f8a5 483f 8b63 dabd 04fa d8be f0b4 673f
00000320: 50e8 893f 50f7 94bc 2fa1 1fbf 5e7a 383f
00000330: e2ce c9be e7de 9abc 1c72 0fbe 0ffe 42bf
00000340: d863 b1bd 48dc 023f 936b be3f 0a0a 973e
00000350: c0fa 363e 783b b53f 3eea f83c aef1 8bbe
00000360: f5c1 0abe b643 883e 974d db3d 0409 4b3c
00000370: 3ccf b83f 0718 c43d ca63 bbbe 4091 853f
00000380: b4ed 85be 80fb 47bd 3e8d ce3d 4865 24bf
00000390: 72fd cabe 6622 de3e dad5 953f e6ff c3be
000003a0: 6011 6dbe 27ca 4e3f 5db3 4abf 63ce a53e
000003b0: ca72 cbbd cb81 acbe 6090 03bf 7710 a03e
000003c0: ba57 923f 4f2e 33bd 2463 3dbf 2005 ab3f
000003d0: 4b0d f1be 6119 6a3e dfa0 d43d 58d4 83be
000003e0: 3126 803d bebd bebe 8cbc a93f 153b 7abe
000003f0: b29e 3dbf 377f c73f 7565 0a3f 6401 60be
1.6098722e-38 -1.1889562e-38 -1.5603583e-38 2.9242577e-38 -4.158404e-39 3.49201e-38 3.569961e-38 7.386796e-39
-1.6639699e-38 -7.146174e-39 1.9606826 0.55665034 0.39453673 1.3470563 0.16384785 -0.10148026
0.26065558 -0.2729625 -0.046439886 -0.09513648 1.648862 0.3528325 0.09203347 0.7278616
-0.6140272 0.10610834 0.09207756 -0.39613613 -0.017672835 -0.31258518 1.2654657 -0.037784398
-0.13234705 0.8418275 -0.35023153 0.42793363 0.7617206 -0.46193716 0.32417277 0.5838672
1.1581084 0.42256042 -0.528455 0.9905505 -0.15847835 0.5711681 -0.02253462 -0.6063154
0.60680944 -0.339863 1.3617536 0.14596975 -0.4230114 0.61731225 -0.41932938 0.53997356
0.41386852 -0.8477489 0.19036241 -0.06049421 1.4463753 -0.57301146 -0.20291156 1.5346042
0.18104644 -0.24556416 0.050371855 -0.042572316 -0.27002028 0.38369066 1.6849122 0.4235074
-0.20110415 0.717564 -0.35367858 -0.06309774 0.23602392 -0.78106225 0.46733287 0.20306158
1.0252241 -0.27027398 -0.20190547 1.159249 -0.3830122 1.1208245 -0.17699961 -0.6413273
-0.07758282 -0.062117312 0.7101652 -0.18697467 -0.26729804 0.9894522 -0.7023086 0.45142877
-0.21255332 -0.20474987 -0.54323536 0.5689129 1.3824747 0.15489584 0.39733377 1.2191614
-0.6684205 -0.18628593 0.08737942 -0.15135153 0.018990774 0.6867087 1.6626185 0.21207836
0.025350505 1.1567178 -0.27751642 -0.24977866 0.31255734 -0.52356267 0.11851125 -0.18079159
0.7475654 -0.19315092 0.18053196 1.0815434 -0.88029 0.5666398 0.15324059 -0.0012644728
0.21767876 0.6532774 1.3421266 -0.18891531 -0.29984948 1.1470333 -0.08805605 0.3960435
0.2737936 -0.807849 0.239654 -0.31926015 1.1191858 -0.25930393 -0.26184887 1.5498102
0.3458326 -0.15560693 -0.6764319 -0.20072028 0.20782413 0.07064364 1.5522175 0.22217049
-0.2611791 0.5098614 -1.2359611 0.18342341 -0.32029393 -0.5150797 0.57049453 0.22005896
1.5860795 -0.69537264 -0.43176365 1.4138434 0.18950108 -0.123067394 -0.0045562726 0.21517092
-0.15278636 0.2909202 1.7029848 0.870496 -0.017701302 1.2487488 0.5193845 0.25075045
-0.101404235 -0.31736642 0.6983367 -0.24417925 1.6136603 -0.51520616 0.2697757 0.771123
-0.8476962 -0.44380268 -0.10976786 0.5894563 0.19872777 0.54799324 1.6821214 -0.31259814
0.3694155 0.17691451 -0.329699 0.46901035 0.7837825 -0.106635176 -0.42378247 0.90510464
1.0774021 -0.018184334 -0.6235532 0.7206172 -0.39415652 -0.018905116 -0.14008373 -0.7616891
-0.08661622 0.5111737 1.4876579 0.29499847 0.17869091 1.4158773 0.030385133 -0.27332824
-0.13550551 0.2661416 0.107081585 0.012392286 1.4438243 0.09574895 -0.3659957 1.0434952
-0.26157916 -0.048823833 0.100855336 -0.6421704 -0.39646488 0.4338562 1.1705887 -0.38281173
-0.2315116 0.8077721 -0.79179937 0.32384023 -0.09934004 -0.33692774 -0.51392174 0.31262562
1.1433022 -0.043745335 -0.739794 1.3360939 -0.47080454 0.22861244 0.10382246 -0.25747943
0.062572844 -0.37254137 1.3260665 -0.244366 -0.74070275 1.5585698 0.5406106 -0.2187553
