Matrix-Factorization-Experiments/models/variational_mf.pth (torch_old, 840711 bytes, 6 tensors)

user_mu.weight f4 [6041, 10]
000000 70 eb 2f 3c da b7 a3 bc 5f c7 b0 bc 43 cc 78 bb
       0.010737285 -0.019985128 -0.021579443 -0.0037963546
000010 3c 99 29 3c e8 fe 18 bd 10 8d 43 3c a1 cd 1f bd
       0.010351475 -0.037352473 0.011935487 -0.039014462
000020 89 26 18 bd 00 1e 83 3c 62 15 b3 3d 91 f9 1a 3f
       -0.037146125 0.016005516 0.08744313 0.6053706
000030 48 35 ad bd 75 2d d3 3f 94 28 44 3f c0 80 d6 3e
       -0.08457428 1.6498247 0.7662442 0.41895103
000040 b2 f7 a1 bc b8 da 02 3f 1c c3 5e bf 7a e6 52 3f
       -0.01977143 0.5111499 -0.87016463 0.8238293
000050 20 a1 70 3e 82 f1 2c bd 7f 03 f5 3c 49 f6 e5 3d
       0.23498964 -0.042222507 0.029908894 0.11228616
000060 2b 8d 2c 3f 78 84 d8 3e 1e c6 42 bf 27 02 21 3e
       0.67402905 0.42288566 -0.7608355 0.15723477
000070 dc 7f eb be d8 c1 d0 3e dd f7 33 3f 84 94 95 be
       -0.45995986 0.4077289 0.70300084 -0.2921487
000080 9d e1 95 bf a6 b4 42 3f 40 23 18 3f 92 95 b7 be
       -1.1709477 0.760569 0.5942879 -0.358563
000090 e7 5d 25 bf ea f5 13 3f e5 88 11 bf bb 08 9e 3e
       -0.6459641 0.5779711 -0.5684951 0.30866036
0000a0 4f 2b 2b 3f ee 62 46 3f e3 bf e7 be 46 d3 88 3f
       0.6686296 0.77494705 -0.45263585 1.0689476
0000b0 a6 d5 91 bf 7e ca 4f bf 02 eb 3e 3f 95 d3 55 bf
       -1.1393325 -0.81168354 0.74577343 -0.83525974
0000c0 15 f8 36 3e 74 d1 ba 3e 01 14 c6 be 0d 2b 1d 3f
       0.17868073 0.36487925 -0.38687137 0.61393815
0000d0 00 c2 fa 3d 05 b4 a1 be 7b 27 7d 3d 56 21 7b be
       0.12244034 -0.31582657 0.06180523 -0.24524435
0000e0 21 df 69 3f 62 bd 2d 3e fd 7b 6b 3f 13 85 6c be
       0.9135609 0.16966775 0.91986066 -0.23097639
0000f0 e7 d5 84 3f 02 8f 61 3f bd e4 3c bf bd 44 15 3f
       1.0377778 0.8810884 -0.73786527 0.5830801
000100 92 16 00 3f b7 95 14 3d e3 c1 97 bf 81 6c 1d 3f
       0.5003444 0.03627559 -1.1856045 0.6149369
000110 61 c1 97 bd a8 ef 38 bd 91 77 5f 3f 58 83 15 c0
       -0.07409931 -0.04515043 0.8729182 -2.3361416
000120 2f 49 16 bf 39 bc 89 3f 1e 4e a4 bf e7 de 25 bf
       -0.5870542 1.0760566 -1.283634 -0.64793247
000130 7d 68 92 bf 93 cc 7c 3f 2f 61 89 3f 3a 62 30 3f
       -1.1438137 0.98749655 1.0732783 0.6889988
000140 12 74 a9 be ec 02 a1 be fc 5f 81 3d c9 33 39 3e
       -0.33096367 -0.31447542 0.06317136 0.1808616
000150 73 f2 09 bf e7 e7 1c 3e f8 60 e2 3d e4 cf 39 be
       -0.53885573 0.15322839 0.110536516 -0.1814571
000160 b9 4d 50 be 7e 89 c3 3e 21 0a 15 bf 24 6f ef be
       -0.20342149 0.38190836 -0.5821858 -0.4676448
000170 5c 81 19 3d 18 99 dc 3e 67 33 ab 3e 27 95 03 3e
       0.037476882 0.4308555 0.33437654 0.12849866
000180 c5 aa 88 3e 57 4a d1 3e 7f 85 73 bf 20 d5 cc 3d
       0.26692787 0.4087703 -0.95125574 0.10001588
000190 da 95 23 bd f9 85 12 3f c3 eb 84 be 32 8f de be
       -0.03993783 0.57235676 -0.25961122 -0.43468624
0001a0 4e d9 2b 3f 67 d0 f6 3e 59 9b 15 bf 24 80 1e 3f
       0.67128456 0.48205873 -0.58440167 0.6191428
0001b0 dd 71 0c 3f d2 30 79 be 73 d3 29 bf 85 01 9b 3e
       0.5486124 -0.2433503 -0.6633827 0.30274597
0001c0 a9 58 60 bf be 48 df 3d 9f 1b ed be 1f 39 53 3d
       -0.87635285 0.10902546 -0.46310136 0.051568147
0001d0 f2 ed 69 3f 60 63 4d be 5d cd 59 bf 13 0b 8b be
       0.913787 -0.2005744 -0.85078984 -0.27156886
0001e0 33 3c a4 3f 50 fd 2a bf 89 6b 35 3f 22 d1 20 3f
       1.2830871 -0.66792774 0.7086721 0.6281911
0001f0 a9 38 1d 3e e6 de 71 be 9b d0 8b bf cd 27 c2 bf
       0.15353645 -0.23620185 -1.0923036 -1.5168396
000200 54 47 71 3f 6c 40 17 bf ec a1 bf 3e e7 f4 97 bf
       0.94249463 -0.59082675 0.37428224 -1.1871613
000210 1e 4d 14 3f 26 a8 2f 3e 19 4b e9 3e 61 0b dd 3e
       0.5793017 0.17153987 0.45565107 0.43172744
000220 eb dd 4a be 86 95 0d be e6 46 f7 3c 5a af 11 3e
       -0.19811217 -0.1382657 0.030185174 0.14227048
000230 51 b8 45 3f 2f b2 49 c0 6f 93 83 bf c3 84 f1 be
       0.7723437 -3.1515005 -1.0279368 -0.47171602
000240 e0 c2 07 3f ae a6 2e bf 9d 52 3c be 4e ed 01 be
       0.5303173 -0.68223083 -0.1839089 -0.12688181
000250 d9 5c 32 bf 0b 97 1f bf 90 79 2f bd 11 6c 85 bc
       -0.69672924 -0.6233985 -0.04284054 -0.016286882
000260 9b 2a 3c bf 69 a0 42 3e 68 99 43 3d 58 84 29 3f
       -0.7350251 0.19006504 0.04775372 0.66217566
000270 5e cf e4 be 54 1f 36 bd d1 dd 89 be ee 4b 11 3e
       -0.4468946 -0.04446347 -0.26927045 0.14189121
000280 f1 b4 1c 3f 8f a6 80 3f b4 98 0c 3f 78 6e 2b 3f
       0.61213595 1.005083 0.54920506 0.66965437
000290 85 52 5e 3f e2 87 6f bf 70 0e 53 be 1d 7c 25 bf
       0.86844665 -0.93566716 -0.20610976 -0.64642507
0002a0 1b 16 06 be 30 aa 3c 3f 52 57 a7 be 49 ea a4 3e
       -0.1309437 0.73697186 -0.32683808 0.32209995
0002b0 59 46 2b be 35 c5 0f bd d4 51 0e be d1 4b f9 be
       -0.16726054 -0.03510018 -0.13898402 -0.48690656
0002c0 eb 7d 83 3d 25 a4 7c 3e 15 c2 88 3d 06 71 eb bd
       0.06420501 0.24671991 0.06677643 -0.11496167
0002d0 4a f2 87 be ae bf 05 be 15 d8 cb bc 8f 28 93 be
       -0.2655204 -0.13061401 -0.02488331 -0.2874188
0002e0 94 e9 9f 3e 6e 79 6d bf b2 89 2a 3e 42 4e 39 3f
       0.31232893 -0.9276341 0.16654089 0.72385037
0002f0 6b d4 83 bf 0f 9b 2c be f1 1e 13 bf 01 ab 0c be
       -1.02992 -0.16856025 -0.5746909 -0.13737108
000300 0c b4 24 be 19 e8 04 3e 3d 91 86 be 9d a8 c3 bd
       -0.16084307 0.12979163 -0.26282683 -0.09553645
000310 f2 dd 20 be 3d 93 96 3c ca 46 22 bd b1 99 0c bf
       -0.15709665 0.018380756 -0.03961829 -0.54922014
000320 39 2a 00 bf ff 7e d3 3e e3 cc 8a 3f 31 5b 1a 3e
       -0.50064427 0.41307828 1.0843776 0.1507385
000330 5a 6b f3 3e 63 37 89 be ba d5 33 3c 10 db 18 3d
       0.4754284 -0.2680007 0.010976249 0.03731829
000340 ca d1 87 3e 60 9c 8c bf 95 7b 95 bf 86 72 d2 3f
       0.26527244 -1.0985222 -1.1678339 1.64412
000350 58 7c 89 be c3 1b 98 3f 5b ff 6d 3d 0d 39 3a bf
       -0.2685268 1.1883472 0.058104854 -0.727433
000360 1b 45 c1 3f a4 1e d7 3f 32 5c 04 40 8b 92 2a 3f
       1.5099214 1.6806226 2.0681272 0.66629857
000370 8e 2b 20 bf 8a de b4 be e4 c5 aa be 5d 69 64 3e
       -0.6256646 -0.35326034 -0.33354104 0.22305818
000380 8a 9d 1c be bc ab ae 3b 1b e3 f6 3e fc 11 11 3f
       -0.15294471 0.005330531 0.48220143 0.56668067
000390 71 4e 61 3e 86 13 1b 3e ea fc 33 bf 50 c2 c8 be
       0.2200258 0.15144166 -0.7030779 -0.3921075
0003a0 ef 97 f7 bd c5 b8 bc bc dd 6b 7b 3e 2c fb 27 3e
       -0.12089526 -0.023037324 0.24552865 0.16404408
0003b0 86 73 aa bd 5e 40 04 3c 6d 64 53 3f fa 9d d8 be
       -0.083228156 0.008071987 0.8257511 -0.42308027
0003c0 b6 b5 64 be 9f 86 81 3e 4c 5e 17 3f 17 2c 72 bc
       -0.22334942 0.2529802 0.5912826 -0.01478102
0003d0 b7 82 a8 bd 65 74 a4 bd f8 a4 e2 3e 7b 40 83 3e
       -0.08228057 -0.08030013 0.44266486 0.25635132
0003e0 ab 26 e3 be d3 a3 20 3e e5 6a 75 bf 5f 2a 1c bf
       -0.4436544 0.15687494 -0.95866233 -0.61002153
0003f0 4a 97 7b bf 70 d2 68 bf a4 3b 15 3e 6e 65 2e be
       -0.98277724 -0.909461 0.14573532 -0.1703088

user_lv.weight f4 [6041, 10]
000000 af d8 65 be f4 e5 c9 3d 69 5d 7f 3d a8 25 d8 be
       -0.2244594 0.09858313 0.062344942 -0.4221623
000010 b4 22 7b 3d b1 41 aa be 5f 07 87 3d 8d eb 44 bd
       0.061312392 -0.33253244 0.06593203 -0.0480762
000020 3c a3 ed 3d 61 c9 13 bb e9 ea 78 c0 d8 a0 8f c0
       0.116034 -0.002255045 -3.8893378 -4.4883842
000030 7a 00 bc c0 19 97 61 c0 75 bb b2 c0 7f 68 a9 c0
       -5.875058 -3.5248473 -5.585383 -5.294006
000040 e2 d0 95 c0 b4 aa a6 c0 97 30 dc c0 58 c0 cb c0
       -4.6817484 -5.208338 -6.8809314 -6.3672295
000050 ca 8a 92 c0 cd 0e fb c0 c2 51 ef c0 57 60 ba c0
       -4.579442 -7.8455567 -7.47873 -5.82426
000060 d1 6d c2 c0 99 5d a6 c0 e3 b0 c0 c0 ce 3e cc c0
       -6.0759053 -5.1989255 -6.0215926 -6.3826666
000070 be c4 c6 c0 b6 b0 ba c0 44 88 9c c0 44 3d 50 c0
       -6.2115164 -5.834071 -4.891634 -3.2537394
000080 72 8c 79 c0 81 5f 8f c0 f9 01 a1 c0 26 7b 8f c0
       -3.899197 -4.480408 -5.031491 -4.483783
000090 75 16 83 c0 2c bd 3e c0 d6 aa a5 c0 82 3e b1 c0
       -4.0964913 -2.9802961 -5.177104 -5.5388803
0000a0 98 a9 80 c0 f8 51 88 c0 1a 02 4b c0 77 fb ae c0
       -4.0207024 -4.260006 -3.1720033 -5.4681964
0000b0 ff 0b 45 c0 cf 7d 6f c0 c1 68 10 c0 5c 05 87 c0
       -3.0788572 -3.7420537 -2.2563937 -4.219404
0000c0 e1 5b a0 c0 02 86 7b c0 b6 8a e6 c0 32 a0 cf c0
       -5.0112157 -3.9300542 -7.2044325 -6.488305
0000d0 dc 74 81 c0 bb a8 aa c0 52 28 af c0 8e 28 c1 c0
       -4.045515 -5.333097 -5.473672 -6.0362005
0000e0 63 93 d6 c0 6f 08 ad c0 85 2f c2 c0 fe a9 be c0
       -6.7054915 -5.4072795 -6.0683007 -5.958251
0000f0 2c 04 9a c0 64 fe b0 c0 61 67 ba c0 07 cd ad c0
       -4.8130093 -5.5310535 -5.8251195 -5.4312778
000100 44 e3 ce c0 0e 5a 77 c0 8a b9 e2 c0 61 10 bd c0
       -6.4652424 -3.8648715 -7.085149 -5.9082494
000110 ba 99 89 c0 69 a2 e3 c0 16 11 87 c0 fa 33 ab c0
       -4.3000154 -7.1135755 -4.2208357 -5.350095
000120 15 71 57 c0 1b 14 9f c0 82 32 29 c0 87 eb 97 c0
       -3.366277 -4.9712043 -2.6437078 -4.747501
000130 32 8c c5 c0 12 8d 90 c0 46 bb 39 c0 a0 32 9e c0
       -6.1733637 -4.5172205 -2.9020553 -4.94368
000140 74 65 99 c0 6f ee c2 c0 9d 33 f1 c0 43 33 d1 c0
       -4.7936344 -6.0916057 -7.5375504 -6.5375075
000150 55 05 95 c0 82 76 ce c0 0e 8d e4 c0 53 f7 d8 c0
       -4.656901 -6.4519663 -7.1422186 -6.780191
000160 3f 79 97 c0 b6 19 e2 c0 e7 16 ae c0 21 c5 c6 c0
       -4.7335505 -7.0656385 -5.4402957 -6.2115636
000170 40 4e ca c0 ef 50 b4 c0 e5 a7 b6 c0 0c e1 bf c0
       -6.322052 -5.6348796 -5.707995 -5.9962215
000180 f3 fa 6a c0 8d bc b3 c0 d8 9d 9b c0 01 7d b6 c0
       -3.6715667 -5.6167665 -4.863018 -5.7027593
000190 43 68 b8 c0 00 87 fe c0 2f 64 f2 c0 2a 3d 04 c1
       -5.7627273 -7.9539795 -7.5747294 -8.264933
0001a0 39 2c d9 c0 de 22 bb c0 f9 95 09 c1 99 55 07 c1
       -6.7866483 -5.8480062 -8.599114 -8.458398
0001b0 0c 59 fb c0 2c 79 da c0 50 60 8b c0 46 6a ae c0
       -7.85462 -6.8272915 -4.355507 -5.450473
0001c0 6d 72 a2 c0 24 bf b1 c0 b7 1b de c0 f1 3a 7e c0
       -5.076468 -5.5545826 -6.940883 -3.9723475
0001d0 15 74 c2 c0 82 f4 a2 c0 a9 5e c0 c0 45 2a c3 c0
       -6.07667 -5.092347 -6.011555 -6.09891
0001e0 d1 63 5c c0 df 5b 58 c0 e3 f8 64 c0 60 fe 80 c0
       -3.4435923 -3.3806074 -3.5776908 -4.0310516
0001f0 2e 3f 44 c0 8b 68 8d c0 fa 36 22 c0 bb 95 94 c0
       -3.0663562 -4.4190116 -2.5346055 -4.6432776
000200 c1 f0 75 c0 43 69 5b c0 36 35 db c0 14 21 b5 c0
       -3.8428195 -3.4282997 -6.8502455 -5.660288
000210 3b 2e d1 c0 ec a3 ae c0 68 b0 9f c0 9b af b7 c0
       -6.5368934 -5.45751 -4.990284 -5.740186
000220 ce 7f a9 c0 69 3d b0 c0 0b a6 ce c0 34 d8 99 c0
       -5.296851 -5.5074964 -6.457769 -4.807642
000230 5e 74 8b c0 d7 18 50 bf 96 9f 7c c0 bf 43 62 c0
       -4.357955 -0.812879 -3.9472404 -3.535385
000240 31 3a f1 bf 0a b5 31 c0 4e d2 62 c0 5e 43 88 c0
       -1.8845884 -2.7766747 -3.544086 -4.2582235
000250 32 c2 5c c0 4d 7c 72 c0 b6 03 ee c0 b1 e9 c1 c0
       -3.4493527 -3.7888367 -7.437953 -6.059777
000260 10 c2 00 c1 31 95 b4 c0 a3 b7 ab c0 9e 28 d3 c0
       -8.047379 -5.643212 -5.3661666 -6.598708
000270 ea c1 d0 c0 f5 0c b7 c0 12 48 c9 c0 7d 96 df c0
       -6.523671 -5.7203317 -6.2900476 -6.98712
000280 25 5a 8a c0 f4 cb 9d c0 2f bd 8b c0 0b 29 97 c0
       -4.323504 -4.9311466 -4.3668437 -4.72376
000290 6a bf af c0 df 43 94 c0 c9 2a c3 c0 f8 ef 61 c0
       -5.492116 -4.633285 -6.098973 -3.5302715
0002a0 dd 7a ad c0 fc ac 86 c0 3b d1 02 c1 04 93 db c0
       -5.421248 -4.2086163 -8.176082 -6.8616962
0002b0 7b 02 c4 c0 01 00 01 c1 09 2e a9 c0 cd 53 cd c0
       -6.125303 -8.062501 -5.2868695 -6.4164796
0002c0 76 79 be c0 bb 69 b1 c0 64 b8 d3 c0 3e bf f3 c0
       -5.952327 -5.5441566 -6.6162586 -7.617095
0002d0 ab 8e f1 c0 17 43 cf c0 54 00 03 c1 ba b3 fd c0
       -7.5486655 -6.4769397 -8.18758 -7.9281893
0002e0 48 91 ce c0 bd e3 ba c0 96 50 f8 c0 de 39 bf c0
       -6.4552345 -5.8403 -7.759837 -5.975814
0002f0 49 8d 06 c1 9a 8c c6 c0 00 e7 f0 c0 07 88 d2 c0
       -8.409493 -6.2046633 -7.5281982 -6.579105
000300 08 dc d8 c0 2a 5c a3 c0 a1 5e f8 c0 07 f0 e6 c0
       -6.7768593 -5.1050005 -7.7615514 -7.2168
000310 ef e8 b4 c0 44 ab a3 c0 9e 91 da c0 1e f0 cb c0
       -5.6534343 -5.1146564 -6.8302755 -6.373061
000320 3b f3 57 c0 82 f8 67 c0 50 f2 a4 c0 25 4c 5b c0
       -3.3742206 -3.6245427 -5.154579 -3.4265225
000330 14 f5 01 c0 35 08 4f c0 5c 34 7d c0 7b 6e 97 c0
       -2.0305834 -3.234876 -3.9563208 -4.7322364
000340 73 21 22 c0 3d db 86 c0 36 97 73 c0 78 74 79 c0
       -2.5332916 -4.2142625 -3.8061042 -3.8977337
000350 cf 7a 39 c0 a1 fb 5b c0 6a d3 3a c0 95 40 5a c0
       -2.8981206 -3.4372332 -2.9191537 -3.4101918
000360 7b 23 3d c0 fe 23 68 c0 36 1e a7 c0 5c 66 9a c0
       -2.9552906 -3.6271968 -5.222438 -4.824995
000370 37 96 f6 c0 35 85 e2 c0 54 fd c4 c0 7f 9a e1 c0
       -7.705837 -7.0787606 -6.155924 -7.0501094
000380 ca 90 e0 c0 cf a0 0a c1 d3 78 d5 c0 5d f1 04 c1
       -7.0176744 -8.66426 -6.670999 -8.308927
000390 e3 68 e9 c0 d0 a0 da c0 c1 d2 d5 c0 80 9b f1 c0
       -7.2940536 -6.8321304 -6.681977 -7.550232
0003a0 37 4b c5 c0 ab 6e e8 c0 7d 90 b3 c0 b3 90 d2 c0
       -6.1654315 -7.2635093 -5.6113877 -6.5801635
0003b0 7e f2 e4 c0 65 ce 1b c1 53 d8 cf c0 5d fd c4 c0
       -7.154601 -9.737889 -6.495157 -6.155928
0003c0 3e bf c4 c0 1f 0b 8a c0 27 53 bf c0 b9 c6 9e c0
       -6.148345 -4.3138576 -5.9789004 -4.961758
0003d0 d9 22 d7 c0 36 c5 a6 c0 f9 18 cf c0 8a c2 d0 c0
       -6.723004 -5.2115736 -6.4717984 -6.5237474
0003e0 db 21 a6 c0 7c 86 c2 c0 c9 ea 9a c0 49 80 c6 c0
       -5.1916327 -6.0789165 -4.8411603 -6.20316
0003f0 70 96 b6 c0 5d fe a3 c0 7a c3 ac c0 1f f1 ac c0
       -5.705864 -5.1248 -5.398862 -5.4044337

item_mu.weight f4 [3953, 10]
000000 09 39 87 bc d6 71 ce bb 97 00 8a bc 27 4b a1 bc
       -0.016506689 -0.0063001914 -0.016845984 -0.019689156
000010 51 b0 1d 3d 77 a5 4c 3c 70 e5 18 bc 42 01 5b 3c
       0.038498227 0.012490622 -0.009332046 0.013366999
000020 77 88 c4 ba 21 f6 86 3c bc 0e 19 be 81 63 b7 3e
       -0.0014994283 0.016474785 -0.14947027 0.35818103
000030 6a 49 1a 3f f9 fa 65 3d 69 3b 8d 3d 4b 49 43 be
       0.6026827 0.05614755 0.06896097 -0.19070928
000040 c8 b8 c2 be e0 66 b3 3d e2 25 84 bd 84 ac 31 be
       -0.38031602 0.08759856 -0.06452538 -0.17350966
000050 db e8 3b be f5 a2 ca 3d d7 a7 9a bc b2 80 72 be
       -0.18350546 0.09894363 -0.01887886 -0.23681906
000060 fd 65 c4 3e 69 39 ed 3d 88 47 11 bf 88 9b 3a 3e
       0.3835906 0.11583216 -0.56749773 0.18223393
000070 2e e7 06 3e 9d 6a 54 be 40 e4 e1 ba 9a 61 e0 be
       0.13174126 -0.20743795 -0.0017234161 -0.43824464
000080 dd 93 be bc 32 1b 03 3d 18 43 37 bf 10 5a 8b 3e
       -0.023263866 0.032008357 -0.7158675 0.2721715
000090 8d a7 c8 be a2 7d 3d 3f 3b b5 f6 bc a1 43 ff be
       -0.3919033 0.74019825 -0.030115714 -0.49856284
0000a0 0f f0 fc 3e 5c 5d f1 3e fd 86 10 be 3b 2d 53 bd
       0.494019 0.4714154 -0.14113994 -0.051556807
0000b0 fa 52 b9 bd 23 ba 1e 3f dc 37 d2 be a7 32 e4 3e
       -0.0904903 0.6200277 -0.41058242 0.44569895
0000c0 62 7a 07 be a2 0d 19 3e 48 cc a4 3d 2e fb 46 3e
       -0.13230279 0.14946607 0.08046776 0.19431755
0000d0 65 aa b6 3d cf d6 df 3d b8 5d 3a 3e 9e c7 6a 3f
       0.08919219 0.10929643 0.18199813 0.9171084
0000e0 8c 21 20 bf 14 fc da 3e ce a7 92 bd 02 66 2a bd
       -0.6255119 0.42770445 -0.071609125 -0.04160119
0000f0 b0 e0 27 3e 3a 82 f8 be de 13 2d 3d ab 03 cc 3d
       0.16394305 -0.48536855 0.042255275 0.09961637
000100 25 94 24 bc 16 80 a4 bd 57 b5 ba 3d ca 66 40 be
       -0.010045086 -0.08032243 0.09116619 -0.18789211
000110 70 2c 4c be 92 82 1e bc 73 5f c2 3d 93 33 c3 3e
       -0.19938827 -0.009674685 0.09490862 0.38125286
000120 37 23 06 be 41 27 c9 bd ff d3 e1 3e 19 08 88 3e
       -0.13099371 -0.0982194 0.44107053 0.26568678
000130 5e 74 d5 be bb 8f 02 3f c7 ab 9d bd 9c de 37 be
       -0.41690344 0.51000565 -0.076987796 -0.17956012
000140 7e b8 68 3e 93 05 a2 be e2 44 9e 3e 10 43 9a 3d
       0.22726628 -0.31644878 0.30911928 0.075323224
000150 cc 3b d0 bd b2 4d 8b 3e 48 f9 91 be 33 70 06 3f
       -0.10167655 0.27207714 -0.285105 0.5251495
000160 e1 41 e3 3e 1b 16 93 3e 21 f1 1d 3d 7b 65 a6 3e
       0.443862 0.28727803 0.038560037 0.32499298
000170 c3 40 b5 be 5a 52 ab 3d 91 7b 23 bf dd 25 1d 3f
       -0.35400972 0.08365317 -0.6386042 0.613859
000180 da 01 18 bf ef 54 89 be 05 ec 4e 3f 1c 96 28 3f
       -0.59377825 -0.26822612 0.8082889 0.6585405
000190 10 3b 98 be ed f2 0c be 25 e1 31 be 2a 5f 12 3e
       -0.2973256 -0.13764544 -0.17371042 0.14294115
0001a0 41 67 f9 bd 9f b8 a4 be 72 a5 eb be f7 eb 86 be
       -0.12177897 -0.32172105 -0.46024662 -0.26351902
0001b0 44 36 8f 3e e4 8e f1 be 6b cb 3b be e0 21 85 3e
       0.2797109 -0.4717933 -0.18339317 0.26002407
0001c0 e6 8f 3c be a6 ae 4e be d7 d3 ee 3c 28 e5 46 3d
       -0.18414268 -0.2018381 0.029153747 0.048558384
0001d0 5e 6c 16 bf 83 2b 0e bd 18 aa 74 be 38 ab 53 3e
       -0.58759105 -0.034709465 -0.2389301 0.20670784
0001e0 87 5b b1 bd 8c fa 1b be 14 db ff be e8 c0 99 bc
       -0.086600356 -0.15232295 -0.4997183 -0.018768743
0001f0 18 36 5e 3f cc e3 88 ba 61 93 ce be f4 58 be bd
       0.8680129 -0.0010443865 -0.40346816 -0.0929431
000200 b4 3d 93 3f a5 24 f2 bd 39 6a ce 3e 50 52 12 39
       1.1503205 -0.11823396 0.40315416 0.00013954309
000210 31 9a 9e 3e 73 f3 19 3e 84 01 73 3e b9 7d 4c 3f
       0.30977014 0.15034275 0.23731047 0.7987934
000220 0e fe b8 be a9 52 62 3f ca 27 49 be bf 80 86 bd
       -0.36131328 0.8840738 -0.19644085 -0.06567525
000230 98 66 2c 3f 3d 20 06 be 23 aa c6 3d 24 53 19 bf
       0.67344046 -0.13098235 0.0970042 -0.5989249
000240 be 0b c0 3e d1 db c9 3e 7d 6a 8c 3e e3 4f c9 be
       0.3750896 0.3942552 0.27424994 -0.3931876
000250 39 d8 46 be 1a c8 10 3f ce c1 b3 3e ba d4 76 3e
       -0.1941842 0.5655533 0.351088 0.24104586
000260 c7 32 6b bf 4e 53 2c bc 4d b1 9a 3e 40 5d 3e 3e
       -0.91874355 -0.010517908 0.30213395 0.1859026
000270 d6 9b f4 be 53 87 03 3f 12 f8 2e 3f 27 eb 08 bf
       -0.47775143 0.51378363 0.68347275 -0.53483814
000280 79 a8 92 bb 35 60 88 be 7a d8 97 be 7d 1d d6 3e
       -0.00447565 -0.266359 -0.29657346 0.41819373
000290 44 8f 9d bd 85 50 eb 3b 48 e8 d4 3e 9e a5 0e be
       -0.076933414 0.0071812295 0.41583467 -0.13930365
0002a0 a2 d8 2c be de 78 0b 3e 7c cc 80 3e 9f f6 10 3f
       -0.16879514 0.13620326 0.2515601 0.56626314
0002b0 44 87 f2 3e f5 c0 70 be 27 bf f7 3e cb 17 25 bd
       0.47368824 -0.23511107 0.48388025 -0.040305894
0002c0 1d ce f0 3d 13 99 a4 3e 8f b1 7d be 3d ea c8 bd
       0.11758063 0.32148036 -0.24774764 -0.098103024
0002d0 d0 94 ed be a4 c8 01 bf b5 94 63 bf 28 9b c8 3d
       -0.46402597 -0.5069678 -0.88898784 0.09795219
0002e0 8e 65 c0 3e 6e c4 df be 2f 9a 38 3e 26 e9 4d bd
       0.3757748 -0.4370455 0.18027566 -0.050271176
0002f0 ef 27 c8 3a a3 cc aa be a4 00 1d bf f3 06 c0 3e
       0.001527069 -0.3335925 -0.613291 0.37505302
000300 16 f1 13 3d 02 b3 9d 3f 78 35 91 3e 05 a7 dc bc
       0.03611859 1.2320254 0.28361106 -0.02693511
000310 2d 68 bf bd 39 1c 49 3d 96 19 19 3d da 28 0e bf
       -0.09346042 0.04909918 0.037377916 -0.55531085
000320 16 d8 07 3f 33 68 70 3d 9e 40 2d bf 47 e4 ba 3e
       0.53064096 0.058693122 -0.67676723 0.36502287
000330 25 37 0f bf 80 85 de 3e b5 92 8c be 0f d3 55 be
       -0.5594352 0.43461227 -0.2745568 -0.20881294
000340 9f 20 c3 3d 64 be 65 3d 17 1e 6e 3d 18 aa 6c 3e
       0.09527706 0.056089774 0.058134165 0.2311176
000350 d5 e9 84 3d 62 db 45 be 40 6f cc bd 6f 02 2c be
       0.064899124 -0.19321969 -0.09982157 -0.16797803
000360 a5 64 27 3e b4 85 d7 be 21 a1 0c be 8c c8 16 be
       0.16346987 -0.42094195 -0.13733341 -0.1472494
000370 07 1d a4 bd c0 fd eb 3c 9c 39 96 bd c6 34 e1 bd
       -0.08013349 0.02880752 -0.07335207 -0.10996394
000380 f4 ac 09 bf b0 3f 20 3f cf 47 ec be 7f 33 4b be
       -0.5377953 0.6259718 -0.46148536 -0.19843863
000390 e8 8e 89 be 45 a3 16 bc 1d b8 9e 3d 65 68 a5 be
       -0.2686684 -0.0091942 0.077499606 -0.3230621
0003a0 45 41 02 bf eb 12 ea 3e a4 91 16 bf b5 d9 ce 3e
       -0.50880843 0.45717558 -0.5881598 0.40400472
0003b0 13 ad 2e bf 77 71 c2 3e 43 72 0c 3f ae 7d c3 3d
       -0.6823284 0.37977192 0.5486185 0.09545456
0003c0 35 c8 91 3d c8 cc 7e 3e 5b 07 cd be b8 4b b8 bc
       0.071182646 0.24882805 -0.40044674 -0.022497043
0003d0 bc 22 83 3e 1c 2c 08 3f f3 9d 8d be a6 ab 7e 3e
       0.25612438 0.53192306 -0.27659568 0.24870166
0003e0 3f 28 b2 3d 4a ef 1e 3e 3d 3c 38 3e 45 d7 63 be
       0.086990826 0.15520969 0.17991729 -0.22250088
0003f0 3d e3 38 3e 07 0c 7e 3d 3e e3 14 be 41 7c f6 3e
       0.18055435 0.06202319 -0.14539811 0.48141673

item_lv.weight f4 [3953, 10]
000000 ff 26 8a bd b7 55 94 bd e4 e5 0d be d7 62 07 3e
       -0.06745719 -0.07242911 -0.13857228 0.13221298
000010 1b 98 91 3d a4 4d 95 3d 27 47 b7 3d 59 eb 10 be
       0.0710909 0.072901994 0.08949118 -0.14152278
000020 5f 0e e1 3a 42 43 eb 3c f9 76 14 c1 35 fa 18 c1
       0.0017170421 0.028718594 -9.279046 -9.561086
000030 36 f5 14 c1 1a 62 24 c1 7d 69 1e c1 a4 bc 31 c1
       -9.309866 -10.273951 -9.900754 -11.108555
000040 7a 3e 14 c1 d4 d6 14 c1 28 96 15 c1 cb 0d 1f c1
       -9.265253 -9.302448 -9.349159 -9.940867
000050 ce 44 e5 c0 10 67 08 c1 d9 5a ea c0 43 92 02 c1
       -7.164649 -8.525162 -7.32359 -8.160708
000060 e0 3e eb c0 46 06 f6 c0 37 3e 07 c1 b6 db fd c0
       -7.351425 -7.688266 -8.452689 -7.93307
000070 62 19 03 c1 ee 89 ec c0 c5 86 e1 c0 6c c8 f0 c0
       -8.193697 -7.391837 -7.0477014 -7.5244656
000080 d8 bc f9 c0 64 5e e9 c0 1e a5 d2 c0 ff 5b 24 c1
       -7.804302 -7.2927723 -6.582656 -10.27246
000090 c4 35 03 c1 84 66 f0 c0 af 4a ef c0 99 c0 01 c1
       -8.200626 -7.512514 -7.4778666 -8.109521
0000a0 b2 e7 ff c0 6d 3f c5 c0 c9 1c f2 c0 a0 ec c6 c0
       -7.997033 -6.1639924 -7.566014 -6.216385
0000b0 0a b2 bf c0 b2 3d c1 c0 98 0d b6 c0 72 2b cd c0
       -5.9904833 -6.038781 -5.6891594 -6.4115534
0000c0 32 ea e5 c0 82 75 e1 c0 d2 7f 0b c1 29 8e f3 c0
       -7.1848383 -7.045594 -8.718706 -7.6111035
0000d0 e8 b0 0b c1 32 c1 0d c1 e6 79 d0 c0 76 fc 04 c1
       -8.73069 -8.859667 -6.51488 -8.311636
0000e0 0f fc 04 c1 87 27 dc c0 b2 97 04 c1 d3 ed e6 c0
       -8.311538 -6.879825 -8.287035 -7.2165313
0000f0 c4 18 fc c0 6c 1a fc c0 e3 70 07 c1 0a 71 02 c1
       -7.878023 -7.8782253 -8.46506 -8.152597
000100 a4 0d 13 c1 27 c9 ef c0 5a 1a 1f c1 98 07 fc c0
       -9.19083 -7.4933047 -9.9439335 -7.875927
000110 04 c7 03 c1 e3 10 12 c1 8c 46 d1 c0 f5 c7 14 c1
       -8.236088 -9.129123 -6.5398617 -9.298818
000120 c2 1d 02 c1 62 64 eb c0 e7 78 d7 c0 65 c9 e2 c0
       -8.132265 -7.3560038 -6.7335086 -7.0870843
000130 15 84 16 c1 39 71 f7 c0 4a d6 0e c1 11 8c f5 c0
       -9.407247 -7.732571 -8.927317 -7.673348
000140 a9 b4 ba c0 23 56 90 c0 b1 99 e3 c0 aa c0 b5 c0
       -5.8345532 -4.5105147 -7.112511 -5.6797686
000150 a8 d4 a6 c0 d8 82 ae c0 cc 3a b7 c0 31 4c a4 c0
       -5.213459 -5.453472 -5.7259274 -5.1343007
000160 6c 81 c2 c0 69 54 99 c0 d9 80 e0 c0 a5 1e d4 c0
       -6.0782986 -4.791554 -7.0157285 -6.628741
000170 c4 a3 e7 c0 7c 23 c0 c0 e3 fe a3 c0 66 2c b9 c0
       -7.238741 -6.0043316 -5.124864 -5.7866697
000180 70 cd f5 c0 a5 f5 99 c0 f6 56 c2 c0 e4 b8 cf c0
       -7.681328 -4.811236 -6.0731153 -6.4913197
000190 82 ae f5 c0 e7 78 18 c1 9c 43 15 c1 70 fd 0c c1
       -7.677552 -9.529517 -9.329006 -8.811874
0001a0 87 e0 21 c1 18 38 26 c1 6d 77 14 c1 21 bd 10 c1
       -10.117316 -10.388695 -9.279157 -9.046174
0001b0 52 17 21 c1 9c f0 0e c1 d4 bf 27 c1 44 31 06 c1
       -10.068193 -8.933743 -10.484333 -8.387028
0001c0 fc 9c 05 c1 94 53 24 c1 9f ac 19 c1 6f 72 13 c1
       -8.350826 -10.270405 -9.604644 -9.215438
0001d0 21 ec 16 c1 20 e1 06 c1 38 06 07 c1 0a 49 ec c0
       -9.432649 -8.429962 -8.439018 -7.383916
0001e0 50 17 d1 c0 d9 65 a7 c0 a3 94 d8 c0 5c 3b b5 c0
       -6.534096 -5.2311826 -6.768144 -5.663496
0001f0 f6 c7 b2 c0 83 72 e2 c0 d5 2e ea c0 dc b0 0e c1
       -5.5869093 -7.0764785 -7.318217 -8.918179
000200 79 14 e2 c0 45 71 a8 c0 da 9b 04 c1 77 d3 ce c0
       -7.064999 -5.263827 -8.28805 -6.4633136
000210 de e0 b0 c0 0a 2b b3 c0 11 1a de c0 59 da e2 c0
       -5.5274496 -5.599004 -6.940682 -7.089154
000220 ad 0a 0a c1 d0 18 00 c1 b7 75 e2 c0 66 00 ef c0
       -8.627606 -8.006058 -7.0768695 -7.4687986
000230 a7 3c e6 c0 6f dc d2 c0 96 20 f8 c0 61 8e f1 c0
       -7.194904 -6.5894084 -7.753978 -7.54863
000240 1d e5 d2 c0 99 a7 c7 c0 34 ca bd c0 9c bb d0 c0
       -6.590468 -6.2392087 -5.930933 -6.5229015
000250 a9 22 d3 c0 b4 63 d8 c0 ab 6d ce c0 a9 96 f2 c0
       -6.597981 -6.762171 -6.450887 -7.580891
000260 7a 87 af c0 9b 49 a5 c0 81 39 f7 c0 26 9f b9 c0
       -5.4852877 -5.165235 -7.7257695 -5.8006773
000270 32 69 b7 c0 6b 28 bf c0 dc b0 dd c0 5c 03 bc c0
       -5.731591 -5.973684 -6.9278393 -5.87541
000280 a2 0e 05 c1 05 41 de c0 70 a5 06 c1 e4 d9 07 c1
       -8.316072 -6.945437 -8.41539 -8.490696
000290 cb ed f9 c0 81 dc 09 c1 17 41 16 c1 2d da 02 c1
       -7.8102775 -8.616334 -9.390891 -8.178266
0002a0 04 12 05 c1 ae 96 05 c1 f7 ab 14 c1 7b 8f eb c0
       -8.316898 -8.349287 -9.291984 -7.3612647
0002b0 1d fd df c0 12 3f 06 c1 da dd 04 c1 d1 d5 1d c1
       -6.9996476 -8.390398 -8.304163 -9.864701
0002c0 2f 3c 09 c1 d2 17 06 c1 8b ba 23 c1 f0 59 f4 c0
       -8.577193 -8.3808155 -10.233043 -7.6359787
0002d0 1b c0 b5 c0 5d 6e ce c0 04 45 dc c0 c5 4f dc c0
       -5.6797004 -6.450972 -6.8834248 -6.8847375
0002e0 d0 83 b2 c0 3d eb f2 c0 31 73 e3 c0 2d ba e6 c0
       -5.5785904 -7.5912156 -7.1078115 -7.2102265
0002f0 4a e6 f4 c0 e3 fb bd c0 0d c5 f4 c0 de bf e0 c0
       -7.6531115 -5.936998 -7.649054 -7.0234213
000300 50 f9 e9 c0 71 e5 de c0 48 b5 de c0 5b 2a 07 c1
       -7.3116837 -6.965508 -6.959629 -8.447841
000310 f4 57 e3 c0 ef e3 0a c1 13 b0 e1 c0 0d 65 e8 c0
       -7.1044865 -8.680648 -7.0527434 -7.2623353
000320 2c 0c d9 c0 57 08 c1 c0 1c b6 cb c0 54 6e de c0
       -6.782736 -6.032268 -6.36598 -6.950968
000330 d5 bc d2 c0 4d 34 e4 c0 fb fe 0f c1 26 37 de c0
       -6.585551 -7.1313844 -8.999751 -6.944232
000340 07 8a de c0 73 d7 e9 c0 96 43 db c0 68 9e f8 c0
       -6.954349 -7.30755 -6.852 -7.7693367
000350 04 45 06 c1 f9 3d 0d c1 8d 34 20 c1 d2 86 fa c0
       -8.3918495 -8.82763 -10.01283 -7.8289576
000360 8f 2c 27 c1 81 ee 1e c1 0b 82 08 c1 cf 1b 17 c1
       -10.448379 -9.9332285 -8.531749 -9.444289
000370 85 a0 f8 c0 8d b7 e1 c0 48 02 0a c1 d4 24 ec c0
       -7.7695947 -7.053656 -8.625557 -7.3794956
000380 b7 fd df c0 b2 f0 fc c0 65 d2 e8 c0 47 6c e2 c0
       -6.999721 -7.9043818 -7.275683 -7.0757174
000390 73 c9 ca c0 d4 6c fe c0 68 0f d2 c0 97 73 d0 c0
       -6.337091 -7.9507847 -6.5643806 -6.51411
0003a0 0e da dc c0 10 02 dd c0 0f f9 c1 c0 e8 f6 bc c0
       -6.901618 -6.906502 -6.0616527 -5.90514
0003b0 82 76 d5 c0 59 43 ee c0 52 b0 db c0 87 bc bf c0
       -6.6707163 -7.445721 -6.8652735 -5.9917636
0003c0 8b e3 1f c1 90 5c e8 c0 32 e5 07 c1 1c b2 09 c1
       -9.9930525 -7.261299 -8.493456 -8.605984
0003d0 e8 4e f8 c0 b5 c0 d7 c0 54 6a 09 c1 98 c9 12 c1
       -7.759632 -6.742274 -8.588459 -9.174217
0003e0 25 5a 18 c1 bf 18 02 c1 9b bb eb c0 b3 90 04 c1
       -9.522008 -8.131042 -7.366651 -8.285327
0003f0 e7 60 fe c0 24 c6 0f c1 32 81 f9 c0 77 21 03 c1
       -7.949329 -8.985874 -7.797021 -8.19567

bias_user.weight f4 [6041, 1]
000000 5e 9c 37 01 b2 64 e9 3c 01 57 0f be 37 e7 5c 3e
       3.372398e-38 0.028490398 -0.13998033 0.21572576
000010 ba e5 21 3f 50 2c 40 bf a0 9a aa bd b6 dc a6 3e
       0.6324116 -0.75067616 -0.08330274 0.32590264
000020 44 d5 f8 3e c9 42 66 bc b5 48 f5 3e 25 76 38 bf
       0.4860021 -0.014054009 0.47907034 -0.72055274
000030 8b 67 0b be b3 41 88 be 92 13 b6 bd 0d 85 76 be
       -0.13613717 -0.26612625 -0.088904515 -0.24074192
000040 48 58 90 3d a3 fd 04 3f 66 6e ac 3e 2b 51 2e 3e
       0.07048088 0.5194952 0.33677977 0.1702315
000050 aa b1 0b 3f 05 e8 1f bf b8 f8 89 be 47 2b 87 be
       0.5456797 -0.6246341 -0.2694757 -0.26400205
000060 dd 83 80 3e b1 f3 ca 3c 76 27 ae be 76 49 da be
       0.25100604 0.024774404 -0.3401448 -0.4263417
000070 04 a0 62 be 57 e3 74 be 5c db 9d be 92 5b 0a 3e
       -0.22131354 -0.23914848 -0.3083142 0.13511494
000080 f6 32 9c be 46 1d 7a be 90 fc cc 3e 0d 6d ab be
       -0.3050763 -0.2442523 0.4003644 -0.33481637
000090 1b eb 48 3f ce e5 5b be a7 ff 26 3e 48 f3 7b 3d
       0.7848374 -0.21474382 0.16308461 0.061511308
0000a0 de ec fc 3d 82 09 95 be b5 d7 c1 3d ff a1 04 3f
       0.12349866 -0.29108816 0.09464971 0.51809686
0000b0 db c0 1d 3e 56 e0 ba be 37 c2 03 bf ce 81 cb be
       0.154056 -0.3649928 -0.51468223 -0.3974747
0000c0 7f 9e 88 be ba 23 a9 3e 78 2a 17 bf 51 5e 5b be
       -0.26683423 0.3303507 -0.5904918 -0.21422698
0000d0 f4 b6 6e be 97 cd 5a 3f 5b 07 84 bc c4 7c ce 3e
       -0.23311979 0.85469955 -0.016116789 0.40329564
0000e0 6a 62 28 3e 81 e3 c2 be 1c ce e2 3e aa 76 0d bf
       0.16443792 -0.38064197 0.44297874 -0.5525919
0000f0 c8 c6 3c bd bc 7d c5 be 53 4a c8 bc ca 28 9f 3e
       -0.04608801 -0.3857249 -0.024449503 0.31085807
000100 85 6c 91 bd 7b ff 4a 3f f6 47 81 be 75 f2 a2 3e
       -0.071007766 0.7929608 -0.25250214 0.31825605
000110 07 d7 3e be 30 c3 38 3d 9a 81 13 3e 73 b9 25 3e
       -0.18636714 0.04510802 0.14404908 0.16184025
000120 ce 76 39 bd e2 25 9d 3d fb 5d 48 3e 57 d9 eb 3e
       -0.045279317 0.07673241 0.195671 0.46064255
000130 5f c1 0d 3f 37 49 96 bd 3a c8 07 3d e5 7e 02 3f
       0.55373186 -0.073381834 0.033149935 0.50974876
000140 a0 8d 48 3e 45 16 e6 be 6e 12 e5 3e 07 b4 a7 3e
       0.19585276 -0.44938865 0.44740623 0.32754537
000150 58 71 bf be ba bb a9 be e6 74 04 3f e2 1f ab bf
       -0.37391162 -0.33151037 0.5174087 -1.3369105
000160 31 64 bd 3d 84 b1 c8 be bc 42 af 3d d8 25 41 3f
       0.092476256 -0.39197934 0.085576504 0.7544837
000170 9d c8 44 bf 38 03 7a bc dd 00 17 3f 39 85 71 bb
       -0.7686861 -0.0152595565 0.5898569 -0.0036853089
000180 17 9e cc be 7d 8e 62 3e 5c 19 8b bd ae 18 94 be
       -0.39964363 0.22124667 -0.06791946 -0.2892508
000190 47 42 b2 be 82 c4 5b 3f c6 b0 fb be e9 26 e1 3e
       -0.3481619 0.8584672 -0.49158305 0.43975
0001a0 3e a6 a8 bd c1 b8 e8 3e 93 4a 1d 3e b6 9c 2a be
       -0.08234833 0.45453456 0.15360479 -0.16661343
0001b0 03 2e 51 be c1 38 cf 3e 8f 8b 7d 3e bf 58 ca bd
       -0.20427708 0.40472987 0.24760269 -0.09880208
0001c0 c7 92 e3 bd c2 49 20 3f f5 42 16 bd 01 40 d4 3e
       -0.1111198 0.62612545 -0.03668495 0.4145508
0001d0 5c 40 8e 3e ab 01 d6 bc 94 5b 82 3d ef 4c 7e 3e
       0.27783477 -0.026123842 0.063651234 0.24834035
0001e0 57 76 d2 be 9f a4 79 3f 67 57 6b 3e c8 be 18 bc
       -0.4110591 0.97516817 0.2298256 -0.00932283
0001f0 a5 9e 56 3d fc 29 da 3e 37 9a ad 3d fd 11 c9 3e
       0.05239739 0.42610157 0.0847668 0.39271536
000200 47 26 5c 3f a9 23 a1 3e 2e b7 90 3e d3 ed 0c bf
       0.85995907 0.3147252 0.28264755 -0.5505039
000210 d2 08 27 3f 35 4d f4 bc 21 a4 a3 bd b2 91 1c 3f
       0.65247834 -0.029821971 -0.079902895 0.61159813
000220 1e ba 2b bf 9d 4b 7c 3e 42 81 d7 3e 6f e7 cc 3e
       -0.6708087 0.24638219 0.42090803 0.4002032
000230 b7 8c 4e be ae b7 85 bf 40 f2 aa be ee d5 2a bf
       -0.20170866 -1.044668 -0.33387947 -0.6673268
000240 80 f1 0c be 7c 51 0b bf 13 c8 37 3e 5b eb 34 3d
       -0.13764 -0.5442121 0.17947416 0.044169765
000250 ae 23 95 3e 39 46 ff 3e bf f2 80 3e 90 43 90 3e
       0.29128784 0.49858263 0.251852 0.28176546
000260 bc 1c a3 3e 62 81 39 3f b8 95 ea be fd 92 63 be
       0.3185786 0.7246305 -0.4581735 -0.2222404
000270 5c bd c9 3e 9a fe 9d 3e 59 a2 82 3f 4f 37 c4 bd
       0.39402282 0.30858308 1.0205795 -0.09580862
000280 7e ea 2a bc 6a 17 06 3f 78 4d 09 3f 16 fb 5c bf
       -0.010431884 0.5237948 0.5363383 -0.86320627
000290 e5 68 5b 3f 93 39 6d 3d f0 98 3f 3e 53 6a 98 bd
       0.8570693 0.057916235 0.18710685 -0.07442155
0002a0 06 a1 a1 3e db de 3c bc 67 d5 96 3e bc a7 a1 3e
       0.31568164 -0.011527742 0.29459688 0.31573284
0002b0 fb 85 53 be 0c 95 f1 bb 29 7f 5c 3e 6f 2c d3 3e
       -0.20656578 -0.007372504 0.21532883 0.41244838
0002c0 f6 88 2c 3e a7 76 ef 3e c8 d2 11 3e 6f f8 07 bf
       0.16849121 0.46770212 0.14240563 -0.53113455
0002d0 27 c1 83 bd 6e 0e aa 3e 34 bb 41 be 8a c1 76 3e
       -0.06433325 0.33214134 -0.18919069 0.24097267
0002e0 3e 96 b4 3e dd bf 7b 3d ae 54 3c 3f 5b 98 f5 3e
       0.35270876 0.061462272 0.7356671 0.479678
0002f0 e8 a2 ae be 15 0e d4 3c 44 b1 f4 bd 93 8d e9 3d
       -0.34108663 0.025885621 -0.11947873 0.11403956
000300 c0 7d b5 bd 6b 44 d8 bd 05 88 b7 3e 64 3f 04 3f
       -0.088618755 -0.10559925 0.35845962 0.51659226
000310 15 79 cb 3e 31 94 b0 be 32 84 16 3e 95 20 03 bd
       0.39740816 -0.3448806 0.14698866 -0.032013495
000320 d3 3e ce 3e 51 63 3d 3f f4 34 19 3e 5b d9 a6 bf
       0.40282306 0.7397967 0.14961606 -1.3035082
000330 20 04 62 bd 90 6a 90 bd b4 9a 24 bf de 7d de 3e
       -0.055179715 -0.07051575 -0.6429856 0.43455404
000340 ab 6d ab bd 60 45 9d be 98 5e 5c 3f 92 6c a1 3e
       -0.08370527 -0.3071699 0.8608184 0.31528145
000350 d0 ab 47 3e 27 7a 4e 3d a1 0b 3f 3e a2 61 52 3f
       0.19499135 0.050409462 0.1865678 0.82180226
000360 95 69 7b be 6b 57 e7 be e5 40 af bd 92 b9 df bd
       -0.24551995 -0.45183882 -0.085572995 -0.109240666
000370 63 a4 30 3f 1e c3 00 3e 54 a5 d9 3e f8 ad d2 bd
       0.69000834 0.12574431 0.42508948 -0.10287088
000380 6e 2a 19 bf 54 c5 87 be dd 54 af 3d f9 51 9f be
       -0.5983037 -0.26517737 0.08561108 -0.31117228
000390 6c 71 67 3f cc 16 c2 bd 62 9f 2e 3f 5e e7 21 3f
       0.90407443 -0.094770044 0.6821195 0.63243663
0003a0 08 f9 17 be b8 72 06 3f 80 d4 4b 3f b7 70 8c 3e
       -0.14841092 0.52518797 0.79621124 0.27429745
0003b0 d5 e5 fa bd 89 c7 c8 bd 84 e4 0d 3e c3 f2 41 be
       -0.12250868 -0.09803683 0.13856703 -0.18940262
0003c0 5a 4a 9f be ca 43 91 3d 37 a3 e5 bd 10 a8 ab 3d
       -0.31111413 0.07093008 -0.112127714 0.08381665
0003d0 8a b9 bf 3e f5 ad 35 bf 74 59 7a 3e a5 af 55 3e
       0.37446243 -0.7096856 0.24448186 0.20867784
0003e0 b1 f2 4a 3f 3e 01 c2 3e 2f 6b 86 bd 6a 10 99 3d
       0.7927657 0.37891573 -0.065634124 0.07473834
0003f0 3f aa fb 3e a4 4a 6d be 8f aa f9 bd b8 73 f8 3e
       0.49153325 -0.23173004 -0.121907346 0.48525786

bias_item.weight f4 [3953, 1]
000000 3c 41 42 00 9b ea 7b 3f fb 4f 9a 3d a9 88 a6 be
       6.084544e-39 0.98404855 0.07534786 -0.32526138
000010 0d 40 d8 be 69 9f b5 be 25 8c 22 3f 86 80 d0 3d
       -0.42236367 -0.35473183 0.63495094 0.10180764
000020 a5 f0 e3 bd ec 6c 09 bf 6f 7d 4b 3e 9b 98 f0 3e
       -0.11129884 -0.53681827 0.19872068 0.4699143
000030 96 c1 6e bf d4 9c 2e 3e 08 67 b9 3e b1 17 1f bf
       -0.9326414 0.17052013 0.3621142 -0.62145525
000040 36 bb 0f 3f ec e6 32 3f aa 15 81 3e 7e 2b 52 bf
       0.56145036 0.6988361 0.2521184 -0.82097614
000050 e1 f6 2d bf 9f c0 05 3f 21 d2 15 3e ea b2 11 bf
       -0.6795483 0.5224704 0.14630939 -0.56913626
000060 a8 5e 49 3c 0b 1a c5 3e ed fc d8 3e 4e d6 b6 be
       0.012290634 0.38496432 0.42380467 -0.35710377
000070 78 bd 5d 3f fb 34 12 3f a4 20 e4 3e 3f b6 0c be
       0.8661723 0.5711209 0.44556153 -0.13741396
000080 ce 3c 41 3f 26 4a 01 3e 94 0d 4f 3f 41 55 54 bd
       0.75483406 0.12625942 0.80880094 -0.051839117
000090 b9 64 56 3f 9b fa 3c 3f 3b 62 a2 bf a2 1b 01 3f
       0.8374744 0.73819894 -1.2686228 0.5043279
0000a0 e8 f4 38 3f 63 d4 1f 3f 29 6a ac be 9f b1 56 3e
       0.722487 0.6243345 -0.33674744 0.20966195
0000b0 82 8c 0c bf f6 65 45 3e 31 d8 91 bd 77 04 6f 3f
       -0.549019 0.19277176 -0.07121313 0.9336619
0000c0 44 c2 68 be 91 af 0a 3f 67 f7 ab 3f fc 0d 77 80
       -0.22730356 0.54174143 1.3434876 -1.093344e-38
0000d0 c8 05 07 3f f4 10 85 3e cf eb 4f bf 75 d8 8d be
       0.52743196 0.25989497 -0.8121919 -0.27704206
0000e0 7b 8d 1f bf b3 0e 50 3e 58 d5 37 3f c8 b6 36 3f
       -0.6232526 0.20318107 0.7180991 0.7137265
0000f0 cd ca 78 3d 30 d3 b3 be d5 35 9b 3e 82 bb 9d be
       0.06074028 -0.3512206 0.30314508 -0.3080712
000100 10 18 57 bf 06 22 96 bf 6d 84 cc bf 3c a7 3c 3e
       -0.8402109 -1.1729133 -1.5977913 0.1842317
000110 9c d4 a5 3e 79 32 0a 3f 49 2b ea bd 52 6c 86 bf
       0.3238877 0.53983265 -0.11434037 -1.0501807
000120 46 79 82 3e 3c 1a ef 3e 1e 06 c2 be bb 3c 20 bf
       0.2548315 0.46699703 -0.37895292 -0.6259267
000130 50 a7 96 be a4 9e 25 3f 3f f1 23 be ad ad fb be
       -0.29424524 0.6469519 -0.16009997 -0.49155942
000140 2a c0 f4 3e 6a 46 81 3d 56 fc aa 3e c6 5a 14 3f
       0.4780286 0.063122585 0.33395642 0.5795101
000150 b8 47 9c 3d 46 4d 87 3e eb 93 9f 3e 9a cd 61 bf
       0.07630867 0.26426142 0.3116754 -0.8820435
000160 6b fc f3 be f5 0d 66 3c 54 da 8c 3e e3 e4 a1 00
       -0.47653517 0.014041414 0.2751032 1.4867624e-38
000170 1b 1b 37 bf 15 63 79 bf ad 3d e0 3e 6f 18 9f be
       -0.71525735 -0.9741681 0.43797055 -0.3107333
000180 6c 2e d1 3e 05 88 17 3d 41 70 c2 be bc 5c ee 3e
       0.4085573 0.036994953 -0.37976268 0.46555126
000190 46 fb 3c 3d e1 05 1d 3f 09 07 ae bf d4 f5 67 3e
       0.04613807 0.61337095 -1.3595897 0.2265237
0001a0 ed b0 1e 3e 15 32 1f be 95 b0 05 3f 51 14 23 be
       0.1549718 -0.15546449 0.5222257 -0.15925719
0001b0 37 04 d7 3c 76 b0 11 01 e0 fe 86 3f 5d c5 67 3f
       0.026247127 2.6758898e-38 1.0546532 0.9053553
0001c0 7f a0 a1 3e 8a a5 d1 bc a1 a5 df bd c0 7c b8 80
       0.3156776 -0.02559163 -0.10920263 -1.6942483e-38
0001d0 44 a7 05 3f ea e4 8d 3e 6e e3 c2 bd 37 8d bb bd
       0.5220835 0.2771371 -0.09516035 -0.09157794
0001e0 50 65 a1 3e 95 6a 19 3f 9a fd 83 be bf 1f 23 3f
       0.31522608 0.59928256 -0.2577942 0.63720316
0001f0 c3 25 1b bd 78 a2 03 3f 3e d3 b3 bf 99 85 62 be
       -0.03787781 0.5141978 -1.4048841 -0.22121276
000200 3d ec 94 3e fa a3 51 3e 1e f5 82 3d 8c 22 f7 3e
       0.29086486 0.20472708 0.06394409 0.48268545
000210 e6 6b 1d bf 6f 20 b7 3d 93 78 ae 3c f0 3e ad be
       -0.61492765 0.08941733 0.021297729 -0.3383708
000220 58 67 98 3e 38 a2 24 bd f4 34 97 3e de 33 2c 3e
       0.29766345 -0.040193766 0.29532588 0.16816661
000230 0f 7c 7c be 49 c9 ce 3e 27 48 f5 bd 2c c8 ad 00
       -0.246567 0.40387943 -0.119766526 1.5959349e-38
000240 5c 72 50 3e d6 3a ae 3d fc 0c 1a bf 1b 9a 2d 3e
       0.20356125 0.08507316 -0.6017606 0.16953318
000250 8e 11 5f bf 7e 14 ec 3e 30 70 52 3f 5d 4f 07 3f
       -0.8713616 0.46109384 0.82202435 0.52855474
000260 5d b7 a7 be ea 01 02 bf 4b 28 5f 3e bb 14 31 3e
       -0.32757083 -0.5078417 0.21792714 0.17293064
000270 ba 89 58 3f 3b c2 b7 be 61 2c ba be ec 66 03 3e
       0.84585154 -0.35890374 -0.36361983 0.1283223
000280 6c 59 6b bf c5 80 ea 3e 88 7e 26 3f dc 76 33 3e
       -0.9193332 0.45801368 0.6503682 0.1752581
000290 62 4f da 3e a3 67 03 3e 9b 23 a0 bf a4 d5 b7 3e
       0.4263869 0.12832503 -1.2510866 0.35905182
0002a0 36 1b a2 be 16 d0 90 bf cb 93 1e be 1d 7c eb 3c
       -0.31661385 -1.1313503 -0.15486066 0.028745705
0002b0 02 a5 0f bf 55 b5 64 bf 7d 4f 4f bf 62 a2 bc 3e
       -0.56111157 -0.8933919 -0.80980664 0.36842638
0002c0 67 86 29 3f d5 8c d2 be 0f 8d 99 3d c8 d6 12 bf
       0.66220707 -0.4112307 0.07497608 -0.5735898
0002d0 06 e8 07 3e aa bc ca bf c3 d6 d7 be 13 b3 fa 3e
       0.13272104 -1.5838826 -0.42156038 0.48964748
0002e0 57 7e 76 3d 9f 29 a0 be a8 91 d8 be 2a d2 23 3c
       0.06017908 -0.31281754 -0.42298627 0.0099988375
0002f0 86 0f 8e 3b 91 7a 92 3e 3d ce 3e 3e 58 cc 2b bf
       0.0043353466 0.28609136 0.18633361 -0.6710868
000300 3c 5e 79 3e bb 09 7d bf b6 22 0e 3f da 54 ee bd
       0.24352354 -0.9884297 0.55521715 -0.11637278
000310 e0 65 bf be f9 0c 14 3e cd 96 e1 3d fa 08 52 3e
       -0.37382412 0.14458074 0.11015091 0.20511237
000320 ca 0d cb be b4 82 27 be 89 51 20 bf ce 2d 6e be
       -0.39658958 -0.16358453 -0.6262441 -0.2325966
000330 da 3c f1 be 7c 40 14 3f 1a cb a1 3e c0 05 9d be
       -0.4711674 0.57910895 0.31600267 -0.3066845
000340 49 90 1e bf f0 52 a1 be 34 3d 21 bd 59 2a ae 3e
       -0.6193891 -0.3150859 -0.03936501 0.34016684
000350 16 70 c8 bf 60 3b 1b 3f 9f 11 75 3f fc dd 04 3f
       -1.5659206 0.60637474 0.9573001 0.5190122
000360 43 8b c3 be 55 22 d3 be ab 2b cc bd 5a 01 e2 3e
       -0.38192186 -0.4123713 -0.099692665 0.44141656
000370 9a f5 a8 bf de c9 48 81 ad 55 97 3e d2 c8 2e 3f
       -1.3199952 -3.687903e-38 0.29557553 0.6827518
000380 ed 3d 3a 3e 9b e3 a3 3c e2 db 2f 3d 98 80 c4 be
       0.18187685 0.020005992 0.042934306 -0.3837936
000390 31 cd 59 be 73 da 74 3e 1c 65 34 3e a8 e9 1e be
       -0.2126968 0.23911457 0.17616695 -0.1551882
0003a0 44 db 44 3f fc 9f 81 3e ee a2 45 bf f1 cd b6 3e
       0.7689707 0.2531737 -0.77201736 0.35703996
0003b0 29 8b e6 3d 80 f3 59 be 2a 59 5a bd 74 c7 cc be
       0.112570114 -0.21284294 -0.05330769 -0.3999592
0003c0 9a 63 74 bf 9b 7c 57 3b aa e5 ce 3e 6d 38 0a bf
       -0.9546448 0.0032880667 0.40409595 -0.5399235
0003d0 52 2d fa be 23 1b dd bd a6 8f 64 3f 2b 18 d3 3e
       -0.48862702 -0.107961915 0.8928169 0.41229376
0003e0 17 f1 87 be 9f 13 07 3f 99 71 38 bf 9f da f2 3d
       -0.26551124 0.52764314 -0.72048336 0.11858105
0003f0 ff 66 e7 3d ab bf 7b 3e 10 4a 6d bc 92 c7 96 bf
       0.11298942 0.24584834 -0.01448299 -1.1779654
